checkpoint_agent_0_critic.pth (torch_old, 568274 bytes, 5 tensors)

fcs1.weight f4 [400, 52]
00000000: bca5 9b3d 12c9 443e fca1 a1bc 6294 263d
00000010: 28e3 3e3d 7a8b 88bb 93c1 c23c 51f6 123c
00000020: fdf9 843d af24 be3d 7718 103d 7322 4f3d
00000030: 055d dfbc dca2 66bc 1b4e 633d 1e1b 5c3d
00000040: eb64 863c 0819 693d 98a8 99bc d3ef 043d
00000050: 1c28 353d 5239 06bd ada3 f1bc 73c7 e4bc
00000060: bb1a 70bc fa25 043e 32ad 883c ca34 5dbb
00000070: 02b7 35bc 9e71 14bd 0f48 3fbc 0d52 a3bc
00000080: 7e9e 41bd f332 bc3d c4bc a7bc 9494 93bc
00000090: 3bba 933c 36f8 17bd 7907 0abd c128 d7bc
000000a0: e49d a3bd 9a32 9f3c ac68 93bc 8829 b4bd
000000b0: 25bd 1fbd 3d75 9cbd 4eee 563d 8e19 adbc
000000c0: 23ca ddbd 9735 a03d 279e 60be 4d64 893d
000000d0: db16 4a3d b242 0f3d 7ae0 fd3c 77b3 e13c
000000e0: 3cb4 debb 8027 4cbd eac9 acbc 52df 9d3d
000000f0: 80d7 0b3d 77b9 9c3d d1ac 85bc 6f09 38bd
00000100: 5636 a9bd cfe7 2f3c 38d3 8b39 d493 a6bc
00000110: d926 b43c e69c 483c c2fc 013d b7e3 813d
00000120: 0d35 073d 4182 873b 40de d43c a1dc 4d3d
00000130: 30f8 f9bc 6030 e53c ccdb 5a3b 3912 09bd
00000140: 90d0 28bc addf fb3c 0a91 2e3c 916d 1b3c
00000150: 2942 c7bc aa35 cb3d 44aa cc3c 42c6 013d
00000160: 7662 433d 264a 34bd 0086 e33c 20b1 b03c
00000170: c9bd f7bc 0e59 d53d 1ad1 e5b9 5827 873d
00000180: d1ca eab9 1dee abbd 695d ad3c 7ff4 203e
00000190: 71b2 cb3e 3961 d73d 757a f03d aa13 2ebc
000001a0: 46cc 2d3d 29e9 5cbd a5b8 d13c b9e9 2e3b
000001b0: 7eb3 56bd 6642 6abc fccd a1bc 86d9 423d
000001c0: 4b71 6a3c 1960 b1bd be96 18bd febd a73d
000001d0: e046 fcbc 2c09 02bd 40c3 0f3d ac55 8f3d
000001e0: 234f 8dbd aeba 053d 207b 1ebd ac00 023e
000001f0: 749b 96bd c57c bcbd abe2 0f3c 261c 2c3e
00000200: 4f99 9f3d bbb6 f23d ef80 9f3b 667a 843d
00000210: 1048 d63d 0ad4 b53b 9b17 0ebd c3c5 2f3c
00000220: b8ef 4d3c c085 a13d 9f27 c33c a71e 43ba
00000230: 5951 423d 44a2 98bd a1d9 193a 44fd f1bc
00000240: 22c2 0d3d acbf 943c 6bbd 02bc 634e 7abd
00000250: 772f ce3c 103a e9bb 4ca3 a2bb f773 3bbd
00000260: 5499 ff3c 0a19 11be c3c8 b53d e0c0 68bd
00000270: d529 5bbc 885e 52bd 342f 5ebc 5be5 d93c
00000280: 152a 4d3d 37c3 85bd 6a12 2e3d e527 09bd
00000290: 79dd 533d 914d 073c 9c7e d1bc 4b19 3fbd
000002a0: d32d bf3c bdde 803c 2497 953c ea79 733b
000002b0: 00ca c43d 2e5b 32bd 8ba8 083d 3e16 bdbd
000002c0: f04f 0dbd 62d8 b23d 2fea cd3c 8061 c1bd
000002d0: 3773 65bd 0daa c93d f6a8 98bc 969e eb3b
000002e0: 45b8 0fbd 05b1 9abc a80b d8bb 7b55 b53a
000002f0: 5679 34bd 4778 933c 3756 8a3b 5f2e d53c
00000300: ee76 86bc 4171 0d3d 245c 66bc 770f 20bd
00000310: 57ce 3b3d 1c5c 773b 4bfd 7fbc dc12 8b3d
00000320: 290c 05bc 102e 183e 0e8c 35bc ace0 213d
00000330: ed10 ae3d 21a0 ff3d 0655 29be 0429 5fbc
00000340: 143a c1bb 3907 2bbd b494 013b 933f 2d3c
00000350: c581 04bd 516d 8f3d 0ac5 90bb e7a7 053d
00000360: e4df 843c d983 a1bd d2fe 32bd 2c75 bc3b
00000370: 3b37 2fbd 81d0 85bc 9540 c53c c72a c6bc
00000380: 41dd edbb ecc8 94bd 1110 1d3d f15d c13d
00000390: f3cb e6bc 7069 713b 141d f8bb bbce ec3d
000003a0: 5eb1 463d 969c efbd f92c 53bc f3d2 e63c
000003b0: ea1a e8bc 03eb fe3c 4590 b5bc f227 2bbc
000003c0: 7fb4 ce3c 0c14 c6bc 4a88 b3bc d6d8 5e3c
000003d0: 7422 863d 5305 313d 7579 3cbc 4f1e 0a3d
000003e0: cc0a 8e3c 2658 d3bd d610 853c 6ba3 fcbd
000003f0: c081 b4bb 9765 31bc 3769 dabb a1a4 82bd
0.07599971 0.19217327 -0.01973056 0.040668853 0.04660335 -0.0041670175 0.023773944 0.008969859
0.06492994 0.092843406 0.03517958 0.050569963 -0.027266035 -0.014076915 0.05549441 0.0537368
0.016405543 0.056908637 -0.01875715 0.032455277 0.044227704 -0.03276951 -0.029496992 -0.027927136
-0.014654811 0.12905112 0.016684148 -0.0033753389 -0.011090996 -0.036241166 -0.011674895 -0.019936586
-0.04727029 0.09189405 -0.020475753 -0.018015184 0.018033138 -0.037101947 -0.033698533 -0.02626455
-0.079890996 0.019433308 -0.017994247 -0.08796984 -0.03899874 -0.07639549 0.05247336 -0.02113035
-0.1082957 0.078227215 -0.2193533 0.06708584 0.049338203 0.034975715 0.030990828 0.027551396
-0.006796388 -0.049842358 -0.021092374 0.077086106 0.034141064 0.07652562 -0.016317757 -0.04493087
-0.08262317 0.01073642 0.00026669516 -0.020334162 0.02199118 0.012244439 0.03173519 0.06342261
0.033009578 0.0041354005 0.025984883 0.050259236 -0.030513853 0.027977169 0.003339517 -0.033464644
-0.010303631 0.030746305 0.010654697 0.009486572 -0.02432354 0.09922345 0.024983533 0.031683214
0.04770132 -0.044016026 0.027773857 0.021568835 -0.030241864 0.104173765 -0.00043834076 0.06599301
-0.00044783068 -0.08395026 0.021162705 0.15718268 0.39784577 0.105165906 0.11742107 -0.010624805
0.04243114 -0.053933296 0.02560074 0.0026689603 -0.05241727 -0.014298057 -0.019751541 0.047570728
0.014309238 -0.08660907 -0.037253134 0.08190535 -0.030795515 -0.03174703 0.035098314 0.069987625
-0.0689986 0.032648735 -0.03869164 0.12695569 -0.07353869 -0.092034854 0.008782069 0.16807613
0.07792913 0.11851259 0.004867665 0.06468658 0.104629636 0.0055489587 -0.03469048 0.010728302
0.01256936 0.07886839 0.023822604 -0.0007443227 0.04744086 -0.07452825 0.0005868916 -0.029539712
0.034608968 0.018157803 -0.007979731 -0.06110991 0.025169117 -0.0071175173 -0.004963314 -0.04576489
0.031201042 -0.14169708 0.08876183 -0.056824565 -0.013376673 -0.051359683 -0.013561059 0.026598623
0.05008896 -0.06531375 0.04249803 -0.033485312 0.051724885 0.008258239 -0.025573067 -0.04665498
0.02333728 0.01573121 0.018260546 0.0037151524 0.09608841 -0.043543987 0.03336386 -0.09232758
-0.034500062 0.08732678 0.025136082 -0.09442425 -0.05601808 0.09846888 -0.018635254 0.007190536
-0.035087842 -0.018883238 -0.0065931864 0.0013834679 -0.044061027 0.018001689 0.0042217034 0.026023088
-0.016414132 0.034531835 -0.014060054 -0.03907725 0.045851078 0.003774411 -0.015624355 0.067907065
-0.008120575 0.14861321 -0.011080755 0.039520904 0.08499322 0.12481714 -0.1653634 -0.013620619
-0.005896816 -0.041754935 0.0019772472 0.010574239 -0.03235032 0.07003272 -0.00441802 0.032630827
0.01622004 -0.07886476 -0.043700047 0.0057512727 -0.04277728 -0.016334774 0.024078647 -0.02419032
-0.0072590415 -0.07264885 0.0383454 0.09441746 -0.028173422 0.0036836527 -0.0075718258 0.11562868
0.048508994 -0.11699788 -0.01288914 0.02817676 -0.028333146 0.031117922 -0.02216352 -0.010446535
0.025232552 -0.024179481 -0.021915574 0.013601502 0.0654954 0.04321797 -0.011503567 0.03372031
0.017339133 -0.10319547 0.01624338 -0.12335857 -0.0055086315 -0.010827444 -0.0066653746 -0.06379057

fcs1.bias f4 [400]
00000000: 1ae8 f43d 5db4 bbbd a307 e03d ebdd 8a3c
00000010: 5628 563d e6cd 55be c00c 3fbd 2f36 4abe
00000020: bb45 823d 8cec ca3d b453 f6bc a234 f0bd
00000030: f0e4 5f3d a6cb fabd f5fb b63c a159 5cbe
00000040: ca37 fdbd 982c fd3d 9157 ee3c a850 483d
00000050: d498 b6bd 94a3 3e3c 88f3 32bd bbec 2c3e
00000060: 49a2 54bd 7da2 ce3d 11d5 df3d c54a cfbc
00000070: cb80 b3bb a3b7 19be e1a1 a2bb e953 b13d
00000080: 9bca 05be aaec f33d 6e49 5a3d e633 04be
00000090: 9e17 003c 8bc5 e6bd 1301 5e3d 76bd 4fbc
000000a0: f79f 083e 3c88 75bb 3987 0d3e 8cc0 953c
000000b0: 6fe5 1b3e 53c1 0cbe 0b03 103d 9705 b53c
000000c0: fe69 65be b7a6 223e ba67 463e 13f0 053e
000000d0: 320b 883d f6b5 34be 9037 d5bb 8c5b 833d
000000e0: 3dd6 bcbc b3d7 fcbc ebcf 32be caf9 d9bd
000000f0: b9f5 ecbd 089a af3c f113 883d 8b2b 763d
00000100: 52f7 0e3e eb39 e63d f142 463d 4d11 223e
00000110: 004f 523d 5167 2a3e 5b0e d33d 1221 fc3d
00000120: c7eb b0bd cbe1 92bd a1ad a83d 8e1d 233e
00000130: 7268 dbbd ae69 99bd 4eeb c13c b100 f83d
00000140: 136b cebd 17c3 d43c d0f7 063e 64eb a6bd
00000150: a64d bebd b8cb d7bd 830b 233d 90b3 563d
00000160: 0ce8 d83d 9875 313d 5bd2 083e 44d7 60bd
00000170: 1df4 14be dc63 22be 074c 0fbe 940c d5bd
00000180: 9c2e c1bd 8f39 24be 636b f53d 55fb c3bd
00000190: 6e12 dabd a1ef 553c 7aa5 bb3d 3667 afbd
000001a0: 3b7b 183e 54ab 28be 133a 41bd bee5 1a3d
000001b0: c09e 98bd ac44 213e 02f9 a7bc 00c4 3dbc
000001c0: 30f2 e7bd 162e 3ebe 4647 3bbd ba3d 34bd
000001d0: 7422 1ebe a41d fc3b da9e 43be a913 0c3d
000001e0: e35a 93bd c521 35be f882 cf3c 7ac6 2fbd
000001f0: 6f5c 3f3d 40be 84bc d1a8 23ba edec a63d
00000200: 0eee 38be 1119 683d 137c 253e f6c4 9a3d
00000210: 5669 7dbd 30b5 2d3e 7985 05be c958 95bd
00000220: 40bc 013e e2dd 99bd 0d5d d5bd 2aea 0c3e
00000230: 534a 91bd a918 753c acb7 b2bd df13 f43c
00000240: 6a42 edbd 6c50 09be 0e92 5b3d bf62 d83d
00000250: a788 02be 2707 55bd a7b8 403e 40a4 21be
00000260: fa9a 2c3c 0429 9abd e6e2 11bd f36c cd3b
00000270: a40d b93d 8163 43bc 9282 333e fc58 67bd
00000280: c9a5 0c3e 63f6 30bc 013e 9abd 88ff e9bd
00000290: 987f adbd b211 a13d 192b 30bb ebc0 08be
000002a0: 8bfa c0bd de59 29be 8b73 fe3c 27da 2abd
000002b0: 06f3 e03d 1756 f43b b565 aa3c 28c6 02be
000002c0: 03e9 38bc d5f0 323d 642c 6b3d 6060 2abd
000002d0: 3970 dbbd 2e20 36bc 5a8b c33c 79cb d43d
000002e0: 01a1 4ebd b3d8 f33d 34f0 bebc b899 52bd
000002f0: a2c9 c2bd 52ac 1c3e cdb3 dbbd 6edb 3dbe
00000300: cc09 83bd 1a09 43bd ada2 1b3e 0689 9c3c
00000310: c7e7 ae3d 69e5 1b3d d460 80bd eaec 143d
00000320: e9ac bdbd 2efb 633e 64d2 01be df35 78bd
00000330: 4db8 543c de7e 9abd 1905 5a3e 8c4d cdbc
00000340: 76d1 7a3d 2763 34ba aff1 8fbd 82c0 983d
00000350: b631 253d f067 f7bc 4705 ea3c 6773 843d
00000360: b205 99bd 4231 9dbb 3fa9 3ebd fdc9 84bd
00000370: 16dc aabd 2b5c 6e3d 8026 a7ba 3bd9 d33c
00000380: d076 43bd 8665 f33d 9219 b6bd f79f 803b
00000390: d241 04be 6011 bbbd d333 333e a814 2bbd
000003a0: dab0 31bd 5af7 7bbd 5951 35bd 5a0c 20bd
000003b0: 2a1f 053e ed29 6a3d 040a c93d 8994 94bd
000003c0: e125 8f3d a3b5 35bd bf70 043d 55ae 183d
000003d0: 04ea c63d fb25 0dbe be0a 9ebd a4f9 923d
000003e0: 38a4 ad3d 02b0 a03d 2cd4 513e 0c8e 213d
000003f0: 8cb7 84bd 2f19 14be 6dca d6bd 210b fcbd
0.11958332 -0.09165261 0.109389566 0.016951522 0.05228456 -0.20879325 -0.04664302 -0.19747232
0.06360956 0.09908399 -0.03006921 -0.11728789 0.05466169 -0.12245874 0.02233694 -0.21518566
-0.123641565 0.12362021 0.02909449 0.048905045 -0.089158684 0.01163568 -0.04368928 0.1688718
-0.05191258 0.10089586 0.10929311 -0.025304208 -0.005478 -0.15011458 -0.004963145 0.08658583
-0.13065569 0.119103745 0.053292684 -0.12910423 0.007818131 -0.11268147 0.054200243 -0.012679448
0.13342272 -0.0037465235 0.13821115 0.01828029 0.1522424 -0.13745622 0.035159152 0.022097392
-0.22403714 0.15883909 0.19375506 0.13079862 0.0664276 -0.17647538 -0.0065068677 0.064139456
-0.023051376 -0.030864572 -0.17462127 -0.106433466 -0.115703054 0.021435753 0.066444285 0.06010012
0.13961533 0.11241516 0.048403684 0.15826912 0.05134487 0.16640975 0.103054725 0.12310995
-0.08638721 -0.07171973 0.08236242 0.15929243 -0.10713281 -0.0749086 0.023671772 0.12109507
-0.100790165 0.025971932 0.1318047 -0.08150366 -0.09292154 -0.10536903 0.0398059 0.052417338
0.105911344 0.043325037 0.13361494 -0.054892793 -0.14546247 -0.15858406 -0.13993846 -0.1040279
-0.09432718 -0.16037582 0.11983373 -0.09569422 -0.106480464 0.01305762 0.091624215 -0.08564608
0.14890759 -0.16471606 -0.047174525 0.037816755 -0.07452154 0.15748852 -0.020504478 -0.011582375
-0.113254905 -0.18572268 -0.04572227 -0.04400418 -0.1544283 0.007693963 -0.19103566 0.034198437
-0.0719507 -0.17688663 0.025331005 -0.04291389 0.04671901 -0.016204 -0.0006243112 0.08150659
-0.1805956 0.05666453 0.16160612 0.075570986 -0.061868034 0.16963649 -0.13039197 -0.07292325
0.12669468 -0.07513024 -0.10418139 0.13761202 -0.07094254 0.014959493 -0.08726439 0.029794632
-0.11584933 -0.13409585 0.053606085 0.10565709 -0.12747441 -0.052008774 0.1882044 -0.15785313
0.010534996 -0.07527354 -0.035616778 0.0062690913 0.09035805 -0.011925579 0.17530277 -0.056481346
0.13735117 -0.010800931 -0.075313576 -0.11425692 -0.08471602 0.07864703 -0.0026881157 -0.13354842
-0.09422787 -0.16538188 0.031060955 -0.041711953 0.10983853 0.007456552 0.02080045 -0.12770903
-0.011286023 0.043686707 0.05741538 -0.041595817 -0.10714764 -0.011116071 0.023870159 0.10390372
-0.050446514 0.119065665 -0.023307897 -0.05141613 -0.09511115 0.1530011 -0.10727654 -0.18540737
-0.06398353 -0.0476161 0.15198775 0.019108307 0.08540302 0.03806058 -0.062684685 0.03635875
-0.092614956 0.22263786 -0.12677914 -0.06059825 0.012983394 -0.07543729 0.21291007 -0.025061391
0.061234914 -0.000688123 -0.07028519 0.07458593 0.04033061 -0.030200928 0.02856697 0.06467324
-0.074717894 -0.0047971318 -0.046548124 -0.06483839 -0.08342759 0.058193367 -0.0012752563 0.02586042
-0.04772073 0.118845984 -0.08891596 0.0039253193 -0.12915733 -0.091341734 0.17500238 -0.041767746
-0.04338155 -0.06151519 -0.044267032 -0.03907428 0.1300017 0.05716889 0.098163635 -0.07254893
0.06989647 -0.044362675 0.032334086 0.03727563 0.09712604 -0.1378402 -0.07716893 0.071765214
0.08478588 0.07846071 0.20491093 0.039442107 -0.06480321 -0.14462732 -0.104878284 -0.1230681

fc2.weight f4 [300, 400]
00000000: cec9 abbc 23df a4bc 4428 ae3c 913f fc3c
00000010: 9b29 de3c cf38 d7bc 11df afbc e170 843d
00000020: e488 793b 9162 70bd 33d7 0fbd 6fe7 a3bd
00000030: 4648 243d d1f3 c0bc 00e8 853d 75ce 84bd
00000040: ca16 123c 18ab 59ba 6eed 16be 7751 793d
00000050: 6c06 ecbd db22 1a3d 2ec0 37bc 65f6 57bd
00000060: b569 89bc 28cc 1bbb 1a6b aabd 5ff1 90bb
00000070: 111e 18bc 5d1e 72bc c1c2 a2bc 640f 9dbd
00000080: 1a05 b43c f425 923d 8f1d 6a3c 8609 c5bc
00000090: 778c e5bd 0c0f 403d 011f 87bc d6fa f4bd
000000a0: f02d 13bd 94f5 07bd d1f9 36bd c8f7 f6bd
000000b0: 0688 e43c cdc5 8e3b 1f3e 453c fe2d 23be
000000c0: 4311 a93d 00bd 1ebd a1bc 7fbd 0ae0 04bd
000000d0: 5ff1 193d 76b3 1a3c e812 5bbd 24f1 9bbd
000000e0: 5e8a a93b 31b0 9f3d e760 efbd b56d 8abd
000000f0: ab59 b4ba 88c7 d0bc d5ee 37bd 805b 23be
00000100: 1fcf 913c 7e33 413d 500c 09bd 0652 f1bc
00000110: 7161 53bd 06bb 9dbd c4a2 30bc 97c9 72bd
00000120: 53bd 473c b51a d93c c121 08be a150 d5bc
00000130: 70c6 88bd 81b7 37bc a089 1a3d c38e deba
00000140: b85e 64bd 3e79 74bd b8d6 8fbd 198f d33c
00000150: f9e7 79bb 5a4e f8bd af50 b13b d05b dbbd
00000160: aa3e ec3c 8254 94bd 1f72 5ebc 2bbd a73b
00000170: 1367 d53c 64d2 a83b 4f76 11bc 826a cfbc
00000180: 58b3 24bd 8108 93bd d27c 7a3c f723 00bc
00000190: 20b4 bfbd 30b3 b0bc d164 84ba 3d7b b0bd
000001a0: 1109 b9bc f024 83bd dfd9 a63b 496f c83c
000001b0: 58db 563c c18c 97bd 736e b0bb 8cff 8abc
000001c0: 08c8 233c 8373 843d 3faf fdbd 0645 42bc
000001d0: 30af 3fbd ba47 013d c275 c7bd 7434 a1ba
000001e0: 9318 773c 4025 b3bd 8a7d c03d a88a 953d
000001f0: b26f c6bd 0dd3 d33b 342a 533d 04f3 5ebd
00000200: 7a4e 10bd 28a2 c43c baa7 8bbd a73f 973d
00000210: f5fb 153d 7ea6 d43c c7b5 623d f088 c6bc
00000220: 8eda 243d 9974 76bc d0c3 fbbc f795 e93a
00000230: 8f19 3dbd 7b7a cabd 951c b63c 7aff 2bbb
00000240: 4919 14bd 965a 273d 19c4 72bd 6bac 1dbe
00000250: 53b4 2fbe 7b47 8c3d a96b aebb 0316 8fbd
00000260: a117 603d 546c 8c3c 7c91 a83a 81ab 703d
00000270: 7910 403d 10c0 43be 7518 0bbd 7aa4 a93b
00000280: dcfa 92be a590 c1bd ae2d c9bd 2e66 6abc
00000290: caed 413d cd68 d13c 1a5e 80bd 2124 a2bd
000002a0: d250 b9bb 15fd cf3b 14bd 453d 840d b8bb
000002b0: d562 fcbd b2ee 9dbc 43b0 e6bd 72f4 fb3c
000002c0: 6bc7 d8bd 8d0b 13bc ef39 4a3d b8f3 37bd
000002d0: efd1 f1bc fba3 223c 2b56 c4bd 9109 d8bc
000002e0: 0423 68bd dafa 4cbd e5ee 2cbe 6f73 6a3d
000002f0: 27dd 853d 5558 41bd 9e32 4cbd 8863 aebd
00000300: 7284 a4bd e6c4 c53c 24d6 a03c 6a30 78bd
00000310: 0df1 eabc aa0a afbc 6dd4 22bc ae0a 4e3d
00000320: 6703 ad3c 71c8 13bd 6cb7 a1bb 0c16 f53c
00000330: e85c e43d 4af1 bdbd 84ac 3d3d 8bc3 3b3c
00000340: 1d0a 9ebc bf93 97bd f112 8fbd c057 18be
00000350: 4447 e93b 5196 423d ab37 483d 96ce 273d
00000360: a326 033d 8483 e53b 2911 2fbc cd1f e13a
00000370: 42e8 27bd f955 8abd 055d 57bb fb4f a9bd
00000380: f40e 47bd f35a c83c f477 0ebd 12f4 09bc
00000390: e653 183c 95c4 94bc 3cf4 34bd b59c 52bd
000003a0: a3af 213d 27ee 723c 8215 b4bd 47a4 623d
000003b0: 5c29 a73d fcbc 31be 901f cb3d 6b3c 64bd
000003c0: 1ab7 f73c 8c20 4a3c 020c 953b 6402 a33c
000003d0: fdaf 1abd 8cb6 e6bb 5793 033c 51c6 133d
000003e0: bd87 d83c d311 8c3d 9e40 8a3c 37fe 2dbc
000003f0: 251c f43c 0323 c93c f5e2 99bd 098c 3ebd
-0.020970251 -0.020125931 0.021259435 0.03079203 0.027119448 -0.026272206 -0.021468671 0.064668424
0.0038075978 -0.05868775 -0.03511734 -0.08003127 0.040107988 -0.02355376 0.06538391 -0.06484691
0.008916566 -0.0008303388 -0.1473901 0.060868707 -0.115246624 0.037630897 -0.011215253 -0.052725215
-0.016774038 -0.002377281 -0.08321209 -0.004423305 -0.009284512 -0.014777747 -0.019868257 -0.07668951
0.021975089 0.07136145 0.014289274 -0.024052393 -0.11208432 0.04688935 -0.016494276 -0.11961906
-0.03593248 -0.033193186 -0.044671837 -0.12058979 0.027896892 0.004357076 0.012038737 -0.15935513
0.082552455 -0.038754463 -0.06243575 -0.032440223 0.037583705 0.009442201 -0.053484827 -0.07614353
0.0051739654 0.07797278 -0.116884045 -0.06759206 -0.0013759633 -0.025485769 -0.044905502 -0.15952873
0.017798958 0.047168247 -0.033459008 -0.029458057 -0.0516066 -0.077016875 -0.010780994 -0.059274282
0.0121911345 0.026501993 -0.13294126 -0.026039423 -0.06678474 -0.011213184 0.037728906 -0.0016979802
-0.055754393 -0.059685938 -0.07023376 0.02582507 -0.0038132651 -0.121243194 0.0054112296 -0.10710871
0.028838474 -0.07242681 -0.013577013 0.005118986 0.026050126 0.0051520336 -0.008878305 -0.025319342
-0.040210098 -0.07179356 0.015288549 -0.007821075 -0.09360528 -0.021569818 -0.0010100846 -0.08617256
-0.022587331 -0.0640353 0.00509189 0.024467127 0.013113819 -0.073998936 -0.0053842603 -0.016967557
0.009996422 0.064673446 -0.12386941 -0.011857277 -0.04679793 0.031562544 -0.097392574 -0.0012298957
0.015081543 -0.08747339 0.09398945 0.07301837 -0.09689273 0.006464368 0.05155392 -0.054430977
-0.03523109 0.024003103 -0.06819101 0.073851876 0.036617238 0.025958296 0.055349138 -0.024235219
0.040247492 -0.0150424475 -0.03073302 0.0017821182 -0.046166953 -0.098866425 0.022230426 -0.0026244805
-0.036156926 0.040857874 -0.059269045 -0.15397803 -0.17158632 0.06849571 -0.0053228927 -0.0698662
0.054710034 0.017141499 0.001286074 0.05875731 0.04689071 -0.19116235 -0.03395887 0.005177078
-0.28707016 -0.09451417 -0.09823166 -0.014306588 0.047345914 0.025562668 -0.062679484 -0.07917047
-0.0056553865 0.0063473084 0.048276022 -0.0056168456 -0.12323538 -0.019278858 -0.11264088 0.030756209
-0.10584911 -0.008974922 0.049371656 -0.044910163 -0.02951905 0.009926791 -0.09586748 -0.02637175
-0.05667402 -0.05004392 -0.16888006 0.057238992 0.06536322 -0.04720338 -0.04985296 -0.08515078
-0.080330744 0.02414174 0.01963336 -0.060593046 -0.028679395 -0.02136739 -0.009938342 0.050303154
0.021119786 -0.036079828 -0.0049351957 0.02991774 0.11150533 -0.09274538 0.0463071 0.011460195
-0.019291932 -0.07401227 -0.06986035 -0.14877224 0.007119091 0.047506634 0.048881214 0.0409685
0.03201927 0.0070042033 -0.010685244 0.0017175615 -0.040992983 -0.06754679 -0.003286184 -0.08267208
-0.048598245 0.02445743 -0.034782365 -0.008420007 0.009297347 -0.018160144 -0.044178233 -0.05141898
0.03947414 0.014827288 -0.08793165 0.05533245 0.081621855 -0.17357248 0.099181294 -0.05572168
0.030238677 0.012336861 0.0045485506 0.0198986 -0.03776549 -0.0070408043 0.008030734 0.0360778
0.026431913 0.06839337 0.016876515 -0.010619692 0.029798577 0.024552828 -0.07513992 -0.046520267

fc2.bias f4 [300]
00000000: d753 6d3d 8237 593d 65cc 1a3d 2dc3 d63d
00000010: 4692 66bc 5492 82bd 4142 56bb a61c dcbc
00000020: 3603 fc3c 79de 1bbd bf55 95bd 2f29 bfbd
00000030: 7eb6 c53c ff5a 383d 0b16 223b 24a8 3fbd
00000040: 6ea3 793c 3c57 b2bd d735 763d bed4 9cbd
00000050: c926 783d d37a e53b 0a21 e93c 4919 6abd
00000060: 782a 39bd 192d d6bd fddc a63d 2ba1 a9bd
00000070: fb3c c13d ea93 14be f7a4 9e3d 3fe8 e83c
00000080: 6e6a 4abb fb8f 9bbd fcd2 4f3d cceb c6bd
00000090: 1cc4 d03d 39c9 323d d328 b7bb 4c2b e03d
000000a0: a60a 2abd 3477 3cbd fec4 59bd e907 093e
000000b0: b62a 943d e510 6bbd f52e 8d3d ca9a 21bd
000000c0: 2060 77bd 3595 243d 5e2d 133e d4a3 cf3c
000000d0: c2f6 d1bd 65e1 babd 9843 bebd 4979 a4bd
000000e0: 53b3 d4bd 0aa9 e4bb cbab 143b 743d c5bc
000000f0: f240 d93d e3f9 9c3d 7a42 e5bd 6158 a3bd
00000100: 8f85 debd a6d0 19bd 9837 a23d c64f 043e
00000110: 942b cebd 1e85 a83d 95c5 97ba 0e87 923d
00000120: 2e54 003e 5311 d43d c004 f73c e9b7 043e
00000130: 0b92 983d f1e4 a4bd 429e ae3d 385a f8bd
00000140: e794 84bd 6aa9 a4bd 1ac7 34bd 0579 483d
00000150: c06e c6bc be23 933d 720d 5dbd f175 8fbd
00000160: 6f81 a23b ed03 2a3d 5632 f7bd 0f2d 863d
00000170: 86a0 58bd 51fd 033e 01f2 743d 760e fcbc
00000180: cf20 013d 0414 323d 932c a93d 300f f5bc
00000190: 6ac5 2ebd 3d65 acbc fc33 ccbd 81de 093b
000001a0: c046 f5bc bf61 af3c 7fcc cdbc 3232 b43c
000001b0: f002 07be 788c 7bbd 5f14 ddbd 0ec6 573d
000001c0: cb64 f3bb 7844 be3d 57c8 52bd f488 863d
000001d0: e3e3 fbbc f642 cdbc 867b da3d 819c 713d
000001e0: 3807 213c a1d7 84bc 743f ae3d b5b0 7bbc
000001f0: 07fb f8bd b6da b9bd 7d4d 19bc 9ef9 613c
00000200: 0bac 2dbd 0fca ba3d e6c0 f13d a28b 9fbd
00000210: 99fb 88bd d115 fabc 23cf b93d 8862 503c
00000220: 6745 b6bd 0dcd 2a3d 20bb 39bd 5ddc a2bd
00000230: 4fea 0fbd fd5c 163d b65b 583c 4d49 c3bc
00000240: f068 77bd 66e2 1dbd f243 b1bd e4ae 0b3d
00000250: 4fbb a93c f1a5 173c 55b4 b63d 5347 cb3d
00000260: e33f 843d 8468 ecbd 83a7 b13d 7a9a 00be
00000270: 8023 3e3d 8d95 9e3d f362 e3bc 67b6 21bc
00000280: f7ee e43d eba7 49bd 5d51 b5bd ab27 b03d
00000290: f4d6 5ebd 5274 a9bd 4cd0 c2bd f6d3 b03d
000002a0: 9140 013e fe9a a7bd 0639 293d db8c 533d
000002b0: 6c91 f63d 7531 433d 04af e73d 7ee0 ee3c
000002c0: 6839 ab3d 3b5d 383d 11c2 b03b 6794 8e3d
000002d0: d845 fc3c 8e6c 863d 04c1 c73d 4bf9 d1bd
000002e0: 55c2 553d cadf f23d 16aa d93d 20fa 83bc
000002f0: 5e6e debd 5303 97bd 9eab ba3d 124d 27be
00000300: 74a5 ddbc cdd3 6dbd 4551 943c 87ff b53d
00000310: 03e8 ab3d e89e d23d 3392 a33d d965 913c
00000320: dede c53d 68dd b63d c0ad 403c bcfd bdbd
00000330: d4ec 3f3d ee2a e3bc 285c 833d 2c9c 033d
00000340: 4426 3fbc bf3a b43d f666 9abd 2d4d 5fbd
00000350: ea86 6f3c 7c04 523c 2119 953d 06f4 003d
00000360: e445 cc3d 58d5 773d 5cb0 f9bc a5d4 5c3d
00000370: f8e1 28bc 2083 9ebd 9a91 30be 7eea dcbc
00000380: 3725 22bd c788 6dbd 671e 72bd c76a fb3d
00000390: 5f7d a03d 933a 5a3d c50f 68bd 4cad d33c
000003a0: 2b71 843d 7648 c63d 0a28 24be 2c2d 12bd
000003b0: c9c3 e5bd 8151 d63d 00fd 43bd 4895 f3bc
000003c0: 2a5e ac3a f0e6 9d3d 8c4a 023e e3b5 1dbd
000003d0: 1e4f 5ebd 66bd 9fbd 873c e73c c0da 603c
000003e0: 66c6 b93d 1736 e93d 5996 0cbe 14c8 643d
000003f0: 113a 7d3d 963c e4bd 87f5 073e fdac 913d
0.057941284 0.053031452 0.037792582 0.104864456 -0.01407296 -0.06375566 -0.00326933 -0.02686913
0.03076325 -0.038053963 -0.072917454 -0.09334027 0.02413487 0.045008656 0.0024732377 -0.04679121
0.015236719 -0.08708045 0.06010994 -0.07657765 0.060583863 0.007003167 0.028458137 -0.05715302
-0.045206517 -0.104578204 0.08147619 -0.082826935 0.09435459 -0.1450955 0.07746308 0.028431056
-0.003088619 -0.075958215 0.05073832 -0.097129434 0.10193655 0.043648932 -0.0055895834 0.10945758
-0.04151406 -0.04601212 -0.053166382 0.13381924 0.07234709 -0.05738916 0.06893722 -0.03945426
-0.060394406 0.040181357 0.14372775 0.025346674 -0.102521434 -0.09125022 -0.09290236 -0.08030946
-0.10385766 -0.006978159 0.0022685404 -0.024077155 0.106080905 0.076648496 -0.1119432 -0.07975841
-0.10865318 -0.0375525 0.0792076 0.12921056 -0.100669056 0.08228515 -0.001157927 0.07154666
0.12532112 0.10354867 0.030153632 0.12960781 0.074497305 -0.080514796 0.08526279 -0.12126583
-0.06473713 -0.08040126 -0.04413519 0.04894354 -0.024222732 0.07184552 -0.0539679 -0.070049174
0.0049592773 0.04150765 -0.12070148 0.06551563 -0.052887462 0.12889601 0.059801105 -0.030768614
0.03152543 0.04347612 0.08260455 -0.029914469 -0.042668737 -0.021044368 -0.09970853 0.0021037164
-0.029940963 0.021408914 -0.025121925 0.021996591 -0.13184714 -0.06141326 -0.10794901 0.052679114
-0.007427787 0.09290403 -0.05146059 0.065690905 -0.030748313 -0.025056344 0.106680915 0.058987144
0.009828381 -0.016216101 0.085081965 -0.015361954 -0.12157255 -0.09074919 -0.009356854 0.0137924235
-0.0424004 0.09120571 0.118043706 -0.07790305 -0.066886134 -0.030527981 0.09072711 0.012718804
-0.08899956 0.041699458 -0.045344472 -0.07952187 -0.035135563 0.036709774 0.013205459 -0.023838663
-0.06040281 -0.03854599 -0.08655538 0.034102336 0.020719199 0.009255872 0.08921114 0.099257134
0.06457498 -0.11543372 0.086745284 -0.12558928 0.046420574 0.07743368 -0.027757144 -0.009870148
0.111783914 -0.049232405 -0.088534094 0.08601316 -0.054404214 -0.082741395 -0.09512386 0.08634178
0.12622286 -0.08183859 0.041314147 0.051648002 0.12039456 0.047654588 0.113126785 0.02915978
0.08360559 0.045010787 0.0053942283 0.06961899 0.030795023 0.06563674 0.09753612 -0.10252627
0.052187283 0.118590906 0.106281444 -0.01611048 -0.108608946 -0.07373681 0.09114765 -0.16337994
-0.027056433 -0.058063317 0.018105159 0.088866286 0.08393862 0.10284215 0.0798687 0.01774876
0.09661649 0.08928949 0.011760175 -0.092769116 0.046856716 -0.027730431 0.06414062 0.03213136
-0.011666838 0.088002674 -0.075391695 -0.05451696 0.014619568 0.012818452 0.072801836 0.03148272
0.09974268 0.060506195 -0.030479603 0.05391373 -0.010307781 -0.07739854 -0.17243043 -0.026967283
-0.039586272 -0.05799177 -0.059111025 0.122762255 0.07836413 0.053278517 -0.056655664 0.02583947
0.064668976 0.096817896 -0.16030899 -0.03568761 -0.11218984 0.104647644 -0.0478487 -0.029734269
0.0013150622 0.077100635 0.1272375 -0.03850354 -0.05427467 -0.07799797 0.028227104 0.013724029
0.090710446 0.1138727 -0.13729228 0.055854872 0.061822955 -0.11144368 0.13277255 0.07113073

fc3.weight f4 [1, 300]
00000000: 38dc 1b3e 00db a63c 9f46 9c3c 8f36 e93c
00000010: 2a2a d2bc c191 c2bc 4cdf 6fbd a9c0 10bd
00000020: 7ea5 a1be f07e 90bc 912c efbc 15a3 b9bd
00000030: 08dc 443d 0cdd 03be cd93 a5bd e741 52bd
00000040: c3ee 3e3d 312f 3ebd cf7e 863c bd80 f7bc
00000050: 4d4c f53c 4130 d6bd 40ba 1e3e 6c7a 0abd
00000060: 4ae4 3ebd 561f fcbc 1e52 b53d f6dd 05bd
00000070: 3fb5 fa3c 7abf c5bc cf31 163d a421 033d
00000080: 3cdc 24bd 90b7 f3bc 2d76 1d3d ec2f 3fbd
00000090: 81c8 e93c d314 153d d6db 523e b74f ef3c
000000a0: bfae c1bc eb01 c8bc f137 d9bc a1fc 9f3c
000000b0: 8ce0 bb3c 4074 23bd ccf2 e03c 0728 d73d
000000c0: 2295 833e adc9 bd3c 830d 893c 6331 063d
000000d0: 6c60 a8bc 365e 06be 49da eabc f059 32bd
000000e0: 6a09 32bd 4359 e4bc 39df 3cbd 6859 1e3e
000000f0: 0b96 e73c 2778 c73c 59e4 b4bc 6a0a d5bc
00000100: 2c74 2fbd b0c7 38bd 879f 0d3d 17c7 b93c
00000110: 1660 06bd d785 d53c cdaf 943d 340c 1a3d
00000120: 7970 063d 8071 0e3d 7aa7 583d 93d2 e73c
00000130: bbd8 ca3c e9bc 01bd e5b0 ea3c ef6d 5bbd
00000140: 9c29 9abc 1744 2ebd 36f6 20bd 0954 613d
00000150: b584 29bd 4195 e73c 84ff d83d 2a57 91bc
00000160: ca37 243d aa83 093d 6334 c9bc b988 ce3d
00000170: cb57 01bd 854c 193d 5e2b 883d 63ec debc
00000180: 097f ea3c 1daa 323e 6985 0b3d 6eb8 10bd
00000190: e03f 3cbd cadf fabc c497 b0bc 08d5 a83c
000001a0: 45f7 103f f300 163d cf2e a5bc 537c 753d
000001b0: 8797 5dbc 2f67 8bbc 6db2 3dbe 31dd e03c
000001c0: 1940 9b3e a990 a83c 12f3 f3bc 6615 813c
000001d0: 0886 b0bc b380 413d 8622 d33c ca71 173d
000001e0: e45b 653d e780 aebc 6643 2d3d ff50 32bd
000001f0: 839e 27bd 21c3 9abd 17a1 263e 81e5 25bd
00000200: 63e5 e9bc c436 c83d 1e90 e53c fa4b 46bd
00000210: aa10 f7bc fd0b f0bc aa69 d03c a6df 583d
00000220: c62d 48bd addc 183d 48f7 d7bc b35c afbc
00000230: 6cf5 8fbc 2a94 543d 8a8f 7e3d a1ab 24be
00000240: cc41 4ebd 6cf0 1dbd fc78 ecbc 6db9 ea3c
00000250: 47e2 9e3d d9a5 c73c ac43 2fbe ae10 3c3d
00000260: d321 b33c c544 c0bc b90d 3c3d d2f3 eebc
00000270: bfea a53c 9b06 643d 0412 2dbd 2419 39bd
00000280: 6b38 013d 987c 15bd 85a7 92bc bf10 953c
00000290: 9f91 133e 17ff 28bd 06dd d5bd 4415 3e3d
000002a0: e6da b43c 0077 fabc b86a 3d3d 2953 ba3c
000002b0: 2fea c53c 134a c03c 1d57 e63c ce4c 013d
000002c0: 4cb4 863c e9ed 153d 2100 343e 6572 d63c
000002d0: 1039 073d b79d a83c 0aa3 253d b552 febc
000002e0: e3de 7a3d 53fb ee3c 3e2c e63c b8e5 41bd
000002f0: ee7e d0bc 2f6d bebc 6e39 a53c 4312 fbbd
00000300: 86d8 bbbc 8999 d2bc bacc 613d 6005 3e3c
00000310: ed07 ce3c 6cf7 a63c 1bc1 033d d9d3 be3d
00000320: f74b a53c f0cf 963c 8a5d 473d e8d3 e0bc
00000330: 3dc7 1b3d 400b 8ebd a0d2 993c f531 0e3d
00000340: 4af7 10be ddc9 b03c a297 62bd 94c8 15bd
00000350: baf7 85bd 9225 093d f27c 313d 7391 60bd
00000360: 5ff2 a33c a830 123d 6d6d 01bd abe3 c33d
00000370: 68bf 7b3e c76c e4bc 794c 4bbd dc19 0ebd
00000380: f293 14bd b6cf dd3e e25f febc 688d 3e3d
00000390: 144d 153d 9967 b53c 98ae 3bbe 4b17 f13d
000003a0: b993 e23c 56aa ad3c 1b40 2abd 8d48 95bd
000003b0: 65fd a1bc e88b 5c3d 37e9 47be 6725 cabc
000003c0: 317b 803e e918 7f3d 5fbd ad3c 3e4d dbbc
000003d0: 1d95 78bd e66e 4ebd 9d4d e8bc d24a c63c
000003e0: d8d8 a13c 8202 d83c 8cf4 5fbd 2226 173d
000003f0: 0bf8 913c 55fc 45bd 5a62 f13c d9d1 f03c
0.15220726 0.0203681 0.019076644 0.028468398 -0.025654871 -0.023751142 -0.058562562 -0.035339985
-0.31571573 -0.017638654 -0.029196056 -0.090643086 0.0480614 -0.12877291 -0.080848314 -0.05133238
0.04661442 -0.046431724 0.016417889 -0.030212754 0.02994361 -0.104584225 0.15500736 -0.033808157
-0.046604432 -0.03077666 0.08853553 -0.03268238 0.030604003 -0.024139155 0.036668595 0.032014504
-0.040249094 -0.029750615 0.03844278 -0.04667656 0.02853799 0.036396813 0.20591673 0.029212816
-0.023642896 -0.024414977 -0.026515933 0.019529643 0.02293422 -0.039905787 0.027459525 0.105056815
0.25699717 0.023167456 0.016730076 0.032761943 -0.02055379 -0.13121876 -0.02866854 -0.043542802
-0.04346601 -0.027874595 -0.04611132 0.15463793 0.028269788 0.024349285 -0.02208154 -0.026005942
-0.0428354 -0.04511231 0.034575965 0.022677941 -0.03280648 0.026064796 0.07260094 0.037609294
0.032822106 0.03477621 0.052894093 0.028298652 0.024761548 -0.0316743 0.028648803 -0.053571638
-0.018818669 -0.042545404 -0.039297305 0.055011783 -0.041386325 0.028269412 0.10595611 -0.017741758
0.040092267 0.03357283 -0.024561113 0.100846715 -0.031577867 0.03742649 0.06648897 -0.027212327
0.028625028 0.17447706 0.034062777 -0.035332136 -0.045959353 -0.030624289 -0.021556742 0.020609394
0.56627303 0.036622 -0.020163922 0.059933018 -0.013524896 -0.017016975 -0.18525095 0.027449222
0.3032234 0.020576792 -0.02977899 0.015757274 -0.021548286 0.047241878 0.025773298 0.036973752
0.055995837 -0.0213017 0.042300604 -0.043534275 -0.040922653 -0.07556749 0.16272388 -0.040502075
-0.028551763 0.09776071 0.028022822 -0.0484123 -0.030159313 -0.029302591 0.02544101 0.052947663
-0.048871778 0.037319828 -0.02636303 -0.021406507 -0.017573081 0.051899113 0.06214861 -0.16081096
-0.050355718 -0.038559362 -0.028866284 0.028652871 0.07758003 0.024371075 -0.17115659 0.045914344
0.021866715 -0.023470292 0.045911524 -0.029168997 0.020253537 0.055670362 -0.04225351 -0.04518999
0.031547945 -0.036495775 -0.017902145 0.018196462 0.14411019 -0.041258898 -0.104425475 0.046407
0.022077035 -0.030574322 0.046244353 0.022744732 0.024159519 0.023472821 0.02811771 0.031567387
0.016443394 0.036603842 0.17578174 0.026177594 0.033013403 0.020583017 0.04043869 -0.031045297
0.061247718 0.029172575 0.028097268 -0.047338217 -0.02545115 -0.023245422 0.020168986 -0.122593425
-0.022930395 -0.025707977 0.055126883 0.011597961 0.025150264 0.020381652 0.03216658 0.093177505
0.020177824 0.0184097 0.04867319 -0.027444795 0.038031805 -0.069357395 0.018777192 0.03471561
-0.14156833 0.02158063 -0.05532039 -0.03656824 -0.06541391 0.033483095 0.043332048 -0.05482621
0.020013032 0.035690933 -0.031598497 0.095649086 0.24584734 -0.0278839 -0.049633477 -0.03469263
-0.036273904 0.43322533 -0.03105158 0.046521574 0.03645046 0.022144126 -0.18328321 0.11772021
0.02765833 0.021199387 -0.041565042 -0.072892286 -0.019774148 0.053844362 -0.19522558 -0.024676038
0.25093988 0.062279616 0.021208463 -0.02677023 -0.06068908 -0.05039873 -0.028357321 0.024205599
0.01975672 0.026368383 -0.054676577 0.0369016 0.017818471 -0.048336346 0.029465843 0.029396938
