checkpoint_agent_1_critic.pth (torch_old, 568274 bytes, 5 tensors)

fcs1.weight f4 [400, 52]
0.01667772 0.2749995 -0.008541907 0.054131914 0.07985766 -0.040630408 0.034962147 0.022432232
0.04698686 0.21923159 0.049540546 -0.030128503 -0.019874005 -0.073675156 0.0698567 -0.02696163
0.013990649 0.18282159 -0.025865814 -0.035923924 0.0075151036 -0.008612911 -0.036606032 -0.09630638
-0.008658812 -0.015480859 0.017734447 0.064717144 -0.044345163 -0.072705925 -0.010624825 0.04815656
0.015138829 0.021720575 -0.033142533 0.07968503 0.010641178 -0.09670036 -0.046364665 0.07143563
-0.015004092 -0.03547146 -0.013371843 -0.086975425 -0.002285947 -0.05223937 0.05709523 -0.02013685
-0.030171042 -0.14939901 0.047487225 -0.01407967 0.04877822 -0.10358571 0.054847315 -0.07179658
0.05812216 -0.06772641 0.00276482 -0.022261547 0.034552377 -0.063857086 -0.038294952 -0.04758621
-0.07651113 0.023472749 -0.02171015 -0.022989988 0.028064333 -0.05671957 0.038933046 0.0033629998
-0.025670514 0.04348637 0.033182405 -0.0098003745 -0.035371967 0.06771188 -0.01441725 0.014527903
-0.075222366 0.012862486 -0.0071022143 0.057478216 -0.051944103 0.10148501 0.0025659164 0.027552625
0.04158993 -0.031279895 0.005356187 0.01743865 -0.033837233 0.10497942 -0.021701468 -0.07800618
0.05823241 -0.044599235 -0.00010046026 0.013181925 0.24460672 0.105467916 -0.07353795 0.13227518
0.07534079 0.056423597 0.03400721 0.010853803 -0.042724792 0.056896083 -0.011345515 0.055757552
0.06483949 0.047268752 -0.052670334 -0.0056640054 -0.0235969 0.07941712 0.0196809 -0.017581979
-0.00081450073 0.107145354 -0.03817595 -0.038116947 -0.037360705 0.0059811925 0.009297266 0.0030028499
0.053237982 -0.09984263 0.01168235 0.041491255 0.094937906 0.07674189 -0.027876403 -0.012468734
-0.008840611 -0.12914935 0.02856693 0.018453898 0.04024237 0.03663552 0.0053311163 -0.010341856
0.052190755 -0.07050965 -0.011044016 -0.13665129 -0.011009053 0.09089753 -0.008027378 -0.12130645
0.09028885 -0.12422636 0.16222906 -0.11844006 0.0013610721 -0.03147875 -0.013837883 0.031705923
0.10999217 -0.024891412 0.042221684 -0.028378554 0.06276639 -0.02158198 -0.026394725 -0.011603543
0.052365657 0.03873906 0.017438877 0.038766604 0.072674975 -0.0820539 0.019626599 -0.0048132786
-0.022308545 0.0782276 0.011398901 -0.0069100065 -0.05441807 0.061646514 -0.008244375 0.05575254
-0.09499096 0.02153901 0.0037972424 0.049945466 -0.028979823 -0.00018201164 0.005248373 0.039003916
-0.0454423 0.05753919 -0.01303365 -0.026097903 0.0693636 0.04256979 -0.01634428 0.056472797
-0.020312259 0.13951306 -0.011800886 0.028086636 0.3988447 -0.038249105 0.10507692 -0.0102674
-0.003977889 0.00255033 -0.023673434 -0.0113727655 -0.0015242326 0.025193851 -0.030068764 0.010684339
0.03437557 0.03727925 -0.028397039 0.023202548 -0.03275962 -0.06864859 0.03938117 -0.0067384453
-0.004242468 0.114009336 0.055898514 0.11286715 -0.05877449 -0.0566998 0.009981201 0.13407905
0.006623932 0.04139437 -0.011837017 0.0185432 -0.059158262 -0.013720175 -0.021111723 -0.02008001
0.009256484 0.098468445 0.0025704026 -0.08400098 0.055477623 -0.009096204 0.012982406 -0.06388219
-0.011450019 0.08344258 0.0141722625 -0.007818476 0.025093043 -0.07121093 -0.0087363785 0.05174815
00000000: b79f 883c bccc 8c3e 5bf3 0bbc 6db9 5d3d
00000010: 6a8c a33d 126c 26bd 7834 0f3d cdc3 b73c
00000020: 4b75 403d 3f7e 603e 07eb 4a3d 0dd0 f6bc
00000030: cfce a2bc 00e3 96bd 0811 8f3d a3de dcbc
00000040: 0939 653c 9535 3b3e 8be4 d3bc f724 13bd
00000050: 4241 f63b 2b1d 0dbc 35f0 15bd 483c c5bd
00000060: b1dd 0dbc 6ea3 7dbc d547 913c 6c8a 843d
00000070: 46a3 35bd d8e6 94bd bf13 2ebc d03f 453d
00000080: da08 783c 59ef b13c 77c0 07bd e831 a33d
00000090: 5658 2e3c d70a c6bd e0e8 3dbd d84c 923d
000000a0: b9d3 75bc 864a 11bd 9315 5bbc 2c20 b2bd
000000b0: d4cf 15bb f3f8 55bd b0dc 693d 09f6 a4bc
000000c0: 4329 f7bc 0efc 18be f781 423d 6bae 66bc
000000d0: accb 473d bf24 d4bd 94a7 603d 160a 93bd
000000e0: 8111 6e3d 25b4 8abd fb31 353b d95d b6bc
000000f0: cb86 0d3d 81c7 82bd 2bdb 1cbd c2e9 42bd
00000100: deb1 9cbd ec49 c03c 7cd9 b1bc 8055 bcbc
00000110: 2ce7 e53c c852 68bd 4278 1f3d c665 5c3b
00000120: f84a d2bc c41e 323d 46ea 073d c091 20bc
00000130: 32e2 10bd 87ac 8a3d 5436 6cbc 7106 6e3c
00000140: 2f0e 9abd 2dbd 523c b1b9 e8bb 476e 6b3d
00000150: 57c3 54bd 5fd7 cf3d ef28 283b 0bb6 e13c
00000160: 345a 2a3d 591f 00bd f482 af3b 80db 8e3c
00000170: e998 0abd 73ff d63d 47c7 b1bc b4c1 9fbd
00000180: 1c85 6e3d b0ad 36bd 31ae d2b8 00f9 573c
00000190: 2f7a 7a3e 90ff d73d 119b 96bd 2573 073e
000001a0: 464c 9a3d 6e1c 673d 254b 0b3d 26d4 313c
000001b0: 3100 2fbd de0b 693d 8ae2 39bc 0862 643d
000001c0: 91ca 843d e19c 413d d9bc 57bd 1f99 b9bb
000001d0: 494e c1bc 71a5 a23d d739 a13c 1508 90bc
000001e0: 3884 55ba 066f db3d 635e 1cbd 8420 1cbd
000001f0: 8a07 19bd e1fd c33b 8f53 183c 76cb 443b
00000200: 1210 5a3d 4b7a ccbd 5467 3f3c bcf2 293d
00000210: ce6e c23d da2a 9d3d 0e5d e4bc a949 4cbc
00000220: 36d8 10bc ba3f 04be 3205 ea3c a12c 973c
00000230: 2fd5 243d 210f 163d a5b0 ae3b e370 29bc
00000240: f9c5 553d 5d67 90bd f6f1 34bc 51ee 0bbe
00000250: 515f 34bc 7c28 ba3d 4385 03bc 846f f8bd
00000260: 5ce9 b83d 646a febd 601f 263e b490 f2bd
00000270: 0066 b23a ddef 00bd 4ab8 62bc 12de 013d
00000280: 9343 e13d 13e9 cbbc a5f0 2c3d 247a e8bc
00000290: aa8b 803d b1cc b0bc c039 d8bc c91c 3ebc
000002a0: 5f7d 563d d9ac 1e3d fadb 8e3c bbc9 1e3d
000002b0: 9ed6 943d e00b a8bd f6c7 a03c b5b8 9dbb
000002c0: 69c0 b6bc cb35 a03d 75c2 3a3c 566d e2bb
000002d0: 7be5 5ebd 0e81 7c3d 6a13 07bc c65c 643d
000002e0: 9f8a c2bd 9472 b03c 28db 783b 9e93 4c3d
000002f0: 1867 edbc 61da 3eb9 8bfa ab3b 92c2 1f3d
00000300: b521 3abd 37ae 6b3d 178b 55bc 45cb d5bc
00000310: 810e 8e3d a95d 2e3d 71e4 85bc 0550 673d
00000320: e565 a6bc 83dc 0e3e 8158 41bc f215 e63c
00000330: 5f35 cc3e 18ab 1cbd 9132 d73d 9938 28bc
00000340: f458 82bb 7023 273b caee c1bc d654 3abc
00000350: c2c8 c7ba 5663 ce3c c552 f6bc 5e0d 2f3c
00000360: 66cd 0c3d 20b2 183d e8a0 e8bc 4513 be3c
00000370: f42e 06bd a297 8cbd 264e 213d 2dce dcbb
00000380: 6704 8bbb ba7d e93d d7f5 643d e426 e73d
00000390: 85bd 70bd 0d3e 68bd 3188 233c 054c 093e
000003a0: 920d d93b 258d 293d 0cf0 41bc e9e7 973c
000003b0: ef4f 72bd 96ca 60bc 7ef2 acbc d57e a4bc
000003c0: 82a8 173c d3a9 c93d 3374 283b b508 acbd
000003d0: 813c 633d 3f08 15bc 28b4 543c aad4 82bd
000003e0: dc98 3bbc f2e3 aa3d c732 683c 1119 00bc
000003f0: ed8f cd3c 09d7 91bd 0723 0fbc def5 533d

fcs1.bias f4 [400]
0.07703545 -0.13887988 0.058165666 -0.03587656 -0.022982288 -0.20276476 0.041370668 -0.16650973
0.09163595 0.04209829 0.029518593 -0.050036717 0.09825401 -0.17284356 0.0052696425 -0.17009531
-0.24186666 0.08550219 -0.030125052 0.08798037 -0.057935912 -0.0034877562 -0.008533025 0.18937257
-0.04910982 0.07619647 0.12858398 -0.08860516 -0.0010859359 -0.002833313 0.035127476 0.061977226
-0.060690742 0.13206884 0.083708964 -0.1580281 -0.08692306 -0.1534766 0.08603795 0.14318807
0.13233835 0.02894686 0.13222672 -0.054297004 0.120271966 -0.12014153 0.010173323 0.012582291
-0.19423518 0.013387689 0.12477273 0.1566797 -0.00580215 -0.17629713 0.042781387 0.07990537
0.026057549 -0.1718899 -0.101823695 -0.1485161 -0.16854218 0.07112077 0.10455321 0.10068775
0.1423067 -0.0017579588 -0.052560143 0.00089341926 0.09928671 0.065157965 0.106364764 0.04964668
-0.1566196 -0.14016928 0.07047959 0.12250275 -0.0990787 -0.17445219 0.03869054 0.12758389
-0.10400837 -0.0058282446 0.17455721 -0.054680876 -0.13157873 -0.123772964 0.04340807 -0.022937132
0.014313247 0.12639678 0.0050790785 -0.051911566 -0.19208278 -0.16333066 -0.15392078 -0.089841075
-0.066734254 -0.070845075 0.16037321 -0.16207486 -0.102499984 0.01604665 0.08490178 -0.14327522
0.103338 -0.138701 0.069589645 0.055650588 -0.20827521 0.13541524 -0.013452314 -0.00073269743
-0.16491883 -0.16808939 -0.004017683 0.0015031454 -0.18143111 -0.020350123 -0.20723626 0.016563801
-0.15504424 -0.12677334 0.024587935 -0.09678603 0.070537955 0.005707148 0.11735347 -0.0064035226
-0.15394624 0.068831794 0.108145885 0.09068932 -0.08760142 0.2158762 -0.062378168 -0.10812016
0.15521361 -0.18103206 -0.18730104 0.029513087 -0.06250404 -0.01127601 -0.09825679 0.061984148
-0.08276978 -0.19706996 0.050466385 0.15325682 -0.061081003 -0.06954244 0.080374666 -0.18488373
0.10469336 -0.10047861 -0.2197658 -0.13072309 0.04525969 0.02890668 0.17073333 -0.037770983
0.08996171 -0.28387296 -0.024384148 -0.03129296 -0.05608163 -0.0415611 -0.08715031 -0.11844827
-0.027632412 -0.26466882 0.04190034 -0.0982015 0.14269908 -0.08361788 -0.059158668 -0.18005373
0.016442005 0.039238974 0.06249083 -0.015552098 -0.07261085 0.037925854 0.011531588 0.064418584
-0.033317704 0.010009469 0.016689904 0.033000514 -0.05426136 0.11534265 -0.12130289 -0.10987989
-0.060020152 -0.105472215 0.09466443 0.057938028 0.034233678 0.16843635 -0.013553585 0.028598167
-0.096031554 0.20999509 -0.12399359 -0.06374415 0.054145183 -0.056239888 0.12328941 -0.019196881
0.15340964 0.08899452 -0.058712568 0.15705985 -0.05297101 -0.03876364 -0.028949723 0.08045247
-0.14874968 -0.031860907 -0.051880922 -0.034950916 -0.009676651 0.09520824 0.034625992 0.061759345
0.021273728 0.072674535 -0.020983769 0.026922077 -0.07001289 -0.07888164 0.17372346 -0.000115801755
-0.025174972 -0.11566598 -0.20365621 -0.08091561 0.14094909 0.049722552 0.013143916 -0.091772825
0.018738072 0.009591965 -0.06981041 0.015193506 0.049480826 -0.16649374 -0.108086586 0.07780753
0.08264559 0.040929988 0.06481926 -0.008941019 -0.0017478957 -0.087767616 -0.034281217 -0.09508192
00000000: c3c4 9d3d 8736 0ebe 1f3f 6e3d 4df3 12bd
00000010: 5a45 bcbc 91a1 4fbe 4a74 293d 8781 2abe
00000020: a1ab bb3d 426f 2c3d fad0 f13c 4df3 4cbd
00000030: 6639 c93d e7fd 30be f7ac ac3b 772d 2ebe
00000040: e5ab 77be c61b af3d d0c8 f6bc 0d2f b43d
00000050: 354e 6dbd d792 64bb 1ace 0bbc e2ea 413e
00000060: 6127 49bd e50c 9c3d 85ab 033e 9f76 b5bd
00000070: f655 8eba 1baf 39bb d4e1 0f3d d5db 7d3d
00000080: db96 78bd 0e3d 073e 9b6f ab3d 1ed2 21be
00000090: b804 b2bd f828 1dbe aa34 b03d e59f 123e
000000a0: b483 073e f721 ed3c 7166 073e 8966 5ebd
000000b0: 2651 f63d c30c f6bd 02ae 263c f425 4e3c
000000c0: 96e5 46be 0a58 5b3c d888 ff3d a570 203e
000000d0: f61f bebb 3c87 34be 893b 2f3d 6da5 a33d
000000e0: a476 d53c e803 30be f188 d0bd 9b14 18be
000000f0: 5296 2cbe c4a7 913d fe1f d63d 6135 ce3d
00000100: d9b8 113e 4f6b e6ba 4e49 57bd 5a34 6a3a
00000110: d556 cb3d 8a71 853d c5d5 d93d 515a 4b3d
00000120: e360 20be 8988 0fbe 9a57 903d b9e2 fa3d
00000130: c6e9 cabd 98a3 32be f979 1e3d 5aa5 023e
00000140: 5702 d5bd dcfa bebb 20bf 323e 0ef9 5fbd
00000150: 93bc 06be ae7c fdbd a9cc 313d a7e6 bbbc
00000160: 1c82 6a3c 286e 013e 666e a63b 39a1 54bd
00000170: 59b1 44be 2740 27be 699d 1dbe 99fe b7bd
00000180: f8ab 88bd 3917 91bd e038 243e f4f6 25be
00000190: 83eb d1bd 4474 833c fce0 ad3d bdb6 12be
000001a0: e0a2 d33d a307 0ebe 0485 8e3d dff1 633d
000001b0: 1946 55be 4baa 0a3e 1867 5cbc 7e12 40ba
000001c0: 7be0 28be a01f 2cbe c5a6 83bb 3105 c53a
000001d0: 14c9 39be 4db5 a6bc be35 54be cfb0 873c
000001e0: ebc3 1ebe dfd0 01be a36c c93c c137 c6bd
000001f0: 3476 903d 0703 bb3b 0457 f03d a4d4 d1bb
00000200: 15a4 1dbe aff7 8c3d 977b dd3d 52bb b93d
00000210: 6068 b3bd a70e 5d3e 4080 7fbd 1a6e ddbd
00000220: 51f0 1e3e 7860 39be d8cb 3fbe 6ec5 f13c
00000230: 1e02 80bd 04bf 38bc db3a c9bd 17e3 7d3d
00000240: 3483 a9bd b5cc 49be d7b5 4e3d 5bef 1c3e
00000250: 1330 7abd 446c 8ebd 799b a43d 2952 3dbe
00000260: 7969 d63d bbc7 cdbd 490a 61be 46dc 05be
00000270: 3a62 393d b4cd ec3c b8d4 2e3e bfb5 1abd
00000280: d83d b83d cc57 91be 44c1 c7bc 0c2d 00bd
00000290: dab5 65bd f93b 2abd dd7b b2bd 0295 f2bd
000002a0: 5e5d e2bc ac82 87be b19f 2b3d de1d c9bd
000002b0: b51f 123e da3f abbd 5c50 72bd 0160 38be
000002c0: 62b1 863c 0cb9 203d 62f6 7f3d 3ace 7ebc
000002d0: ffb4 94bd 2458 1b3d fcee 3c3c e4ed 833d
000002e0: 2578 08bd c2fe 233c 44b9 883c 8c2b 073d
000002f0: 2941 5ebd c438 ec3d a66d f8bd b508 e1bd
00000300: b1d7 75bd d101 d8bd 6ddf c13d 6d50 6d3d
00000310: 9d38 0c3d 947a 2c3e db0f 5ebc b446 ea3c
00000320: 31ac c4bd f408 573e 5af0 fdbd 4b8c 82bd
00000330: 57c7 5d3d cc5b 66bd 287f fc3d c742 9dbc
00000340: 6b17 1d3e c242 b63d 977c 70bd 4cd4 203e
00000350: 21f8 58bd 9fc6 1ebd f827 edbc 44c4 a43d
00000360: d651 18be 9580 02bd 1781 54bd b128 0fbd
00000370: d18a 1ebc 8afc c23d fcd3 0d3d 5ef7 7c3d
00000380: 3e46 ae3c 63d6 943d 27e6 abbc b08b dc3c
00000390: eb62 8fbd b38c a1bd 90e4 313e 98da f2b8
000003a0: be3b cebc 49e2 ecbd 418b 50be 15b7 a5bd
000003b0: f554 103e e0a9 4b3d 9459 573c 64f3 bbbd
000003c0: 9680 993c 9e27 1d3c c3f8 8ebd 2fee 783c
000003d0: 68ac 4a3d 567d 2abe 805c ddbd 8e59 9f3d
000003e0: 1742 a93d 34a6 273d f6bf 843d 5a7d 12bc
000003f0: a619 e5ba 82bf b3bd 766a 0cbd 4fba c2bd

fc2.weight f4 [300, 400]
-0.006680973 0.041794624 0.0105601745 -0.078868 -0.030758744 -0.051603917 -0.03368445 0.02393205
0.056412328 -0.003273999 0.042914107 -0.04583843 0.05956429 0.027231691 -0.019029189 0.010885835
-0.052936167 0.03194707 0.016383106 0.013476045 -0.024931027 -0.03271028 0.0005147663 0.0010841163
-0.024720022 0.01663664 -0.0029848001 -0.012685426 0.041549765 0.023913987 0.0051261596 -0.014958748
0.023219882 0.045418233 -0.018906483 0.011112989 -0.05354542 0.025364183 0.040172193 0.02297466
-0.01367002 -0.038459394 -0.058344964 -0.03504842 0.009856241 0.055733204 -0.0032104673 0.014244564
0.042809367 -0.065363504 -0.037330512 -0.0116258245 0.036555707 -0.049904022 -0.018521009 -0.038573112
-0.0058179335 -0.079165615 -0.03112994 -0.03125364 0.049947407 -0.01329048 -0.051461626 -0.02461145
-0.039246634 0.031212213 -0.004659344 0.008691329 -0.037517846 -0.044941094 0.032984857 0.043938402
0.005664763 0.05095688 0.0020732458 -0.036268763 0.010989803 -0.036384217 -0.0114726275 0.039024338
0.06357443 -0.00029362505 -0.043931443 -0.0124541605 0.060128473 0.059179623 0.032220818 -0.3115717
0.02214136 -0.013507851 -0.037991673 0.014956705 0.0066632573 0.04828633 -0.0028648512 -0.01778265
-0.027437754 -0.039336592 0.007155922 0.002592257 0.0030203525 -0.0598005 0.078993805 -0.07821533
-0.034625843 -0.034140848 0.013853129 -0.014209035 0.05043769 -0.010534791 -0.016903 0.02756574
0.03438786 0.025948793 -0.067668475 -0.036844708 0.025935115 0.014490477 -0.024196098 0.021384778
0.06613235 -0.010185123 -0.064823724 -0.060210086 0.017528309 -2.387938e-05 -0.0592593 -0.023487272
-0.029197935 -0.070430025 -0.04301272 -0.024686344 0.025455767 0.011172989 -0.056273855 0.06658181
0.10280785 -0.044163253 -0.08899366 0.05812331 0.021876905 -0.018485868 0.020184549 0.07037059
-0.032076027 -2.1025057 -0.038926933 -0.015308854 0.040023442 0.08443094 0.028232904 -0.05573341
0.052677847 0.040214054 0.00033461288 0.031784214 0.0311933 0.0006488572 -0.06063334 -0.14456305
0.06494801 -0.22832364 -0.050786182 -0.029776003 0.05317879 -0.03450732 0.0079054795 -0.040323146
0.050030675 -0.07272476 0.042464614 -0.00082376745 -0.040714506 0.011152203 -0.022693869 0.0025193088
-0.007230534 -0.25893077 -0.02717849 0.019181406 -0.025267292 0.011026107 -0.033191543 -0.044401452
-0.0021616712 -0.06618755 0.04273728 0.069041684 0.057263874 -0.036951803 -0.03636977 -0.104101814
0.016665258 0.024083816 0.079371005 -0.011378323 0.0044226376 -0.013614889 -0.037019994 -0.053239975
-0.017019937 0.040420316 0.016038043 0.027097778 0.02143935 -0.050288286 0.010525751 -0.037721526
-0.021417761 -0.099409565 -0.08116246 -0.038004164 -0.018246908 0.012221875 0.004007428 0.018079983
-0.03668988 0.08018782 -0.00022501727 -0.018397935 -0.057921227 -0.06879768 0.0114644775 0.046157
0.025669323 0.040185377 -0.034060836 0.047056764 -0.008564397 -0.0008452673 -0.054836616 0.04527103
0.063327156 0.043274358 -0.013835304 0.061442442 0.09449594 -0.054643106 0.021748245 0.014642772
0.043085746 0.020573568 -0.015374703 0.033524536 0.054955468 0.02188647 0.07264403 -0.008752347
0.026915297 0.01723053 0.060124394 0.027815009 0.049977764 -0.011182185 0.034523915 -0.014344304
00000000: 10ec dabb d730 2b3d 9504 2d3c 8c85 a1bd
00000010: c3f9 fbbc a15e 53bd b5f8 09bd 260d c43c
00000020: 9d10 673d 9790 56bb b4c6 2f3d 14c1 3bbd
00000030: aff9 733d ff14 df3c 1ae3 9bbc 805a 323c
00000040: 98d3 58bd eeda 023d dd35 863c a1ca 5c3c
00000050: 273c ccbc 37fb 05bd 62f1 063a e818 8e3a
00000060: a581 cabc 9049 883c a39c 43bb 88d6 4fbc
00000070: 1630 2a3d 44e7 c33c 58f9 a73b 8915 75bc
00000080: 9f37 be3c 7808 3a3d c5e1 9abc 4113 363c
00000090: 7152 5bbd 8cc8 cf3c 998b 243d 5b35 bc3c
000000a0: 38f8 5fbc 9987 1dbd 21fb 6ebd ef8e 0fbd
000000b0: 127c 213c 8048 643d b466 52bb 0862 693c
000000c0: e058 2f3d 4ddd 85bd e1e7 18bd 3e7a 3ebc
000000d0: 70bb 153d 2968 4cbd 5fb9 97bc d7fe 1dbd
000000e0: 5da4 bebb 9521 a2bd 3704 ffbc d103 00bd
000000f0: a795 4c3d 50c0 59bc 6dc9 52bd f49d c9bc
00000100: 14c1 20bd c1b0 ff3c 69ad 98bb 1366 0e3c
00000110: 50ac 19bd 2714 38bd 211b 073d c1f8 333d
00000120: 7a9f b93b 29b8 503d 4bdf 073b 8e8e 14bd
00000130: 930e 343c 9e07 15bd b0f7 3bbc fcd7 1f3d
00000140: 5033 823d b0f1 99b9 75f1 33bd 890c 4cbc
00000150: 4649 763d 5566 723d faf9 033d 5386 9fbe
00000160: cc61 b53c 0950 5dbc 289d 1bbd f80c 753c
00000170: 7457 da3b e3c7 453d 3ac0 3bbb ecac 91bc
00000180: 24c5 e0bc 681f 21bd 397c ea3b dbe2 293b
00000190: 1bf1 453b 5ef1 74bd 81c7 a13d 5c2f a0bd
000001a0: d4d3 0dbd 46d7 0bbd 3cf8 623c 03cd 68bc
000001b0: c097 4e3d 1e9a 2cbc 2978 8abc 8cd1 e13c
000001c0: 49da 0c3d 9092 d43c c595 8abd 7aea 16bd
000001d0: e175 d43c 7769 6d3c e536 c6bc 212f af3c
000001e0: 6670 873d 81df 26bc 4dc2 84bd da9e 76bd
000001f0: 8797 8f3c 9450 c8b7 e1b9 72bd 6168 c0bc
00000200: 8230 efbc 9e3d 90bd 1b2e 30bd 043b cabc
00000210: 9d88 d03c ea0e 373c 6a7f 66bd 0b5c 883d
00000220: ec8c d23d 87e4 34bd 4f42 b6bd b512 6e3d
00000230: 3237 b33c ad6f 97bc 115a a53c 751e 903d
00000240: 2762 03bd 748f 06c0 d971 1fbd fdd1 7abc
00000250: 9fef 233d 21ea ac3d b148 e73c b748 64bd
00000260: bac4 573d 7eb7 243d fb6e af39 2a30 023d
00000270: 1789 ff3c 1218 2a3a aa5a 78bd 5608 14be
00000280: 7603 853d accd 69be 2c05 50bd ceec f3bc
00000290: 01d2 593d 8c57 0dbd fc85 013c e229 25bd
000002a0: f7ec 4c3d b8f0 94bd 60ef 2d3d 19f2 57ba
000002b0: 41c4 26bd bbb7 363c 7ee8 b9bc fd1a 253b
000002c0: 1eee ecbb 9392 84be 6da5 debc 5322 9d3c
000002d0: 5afd cebc d8a6 343c dbf3 07bd 4cde 35bd
000002e0: d3aa 0dbb 578d 87bd 490d 2f3d ba65 8d3d
000002f0: 868d 6a3d c65a 17bd 78f8 14bd 5533 d5bd
00000300: 9485 883c 6c4b c53c 448d a23d 256c 3abc
00000310: c6eb 903b fc10 5fbc 47a2 17bd 2912 5abd
00000320: 656d 8bbc c68f 253d 3762 833c 29fc dd3c
00000330: 93a1 af3c 17fb 4dbd 3374 2c3c e381 1abd
00000340: 4d74 afbc 3e97 cbbd 8138 a6bd 41aa 1bbd
00000350: 8a7a 95bc 423e 483c be50 833b 791c 943c
00000360: 2148 16bd 8339 a43d 9df2 6bb9 44b7 96bc
00000370: cf3e 6dbd cce5 8cbd 81d5 3b3c 1f0f 3d3d
00000380: 7948 d23c 6c99 243d 6083 0bbd 98be 403d
00000390: af51 0cbc ee94 5dba 5c9c 60bd 1e6e 393d
000003a0: abb1 813d 7440 313d 79ad 62bc 12ab 7b3d
000003b0: 1687 c13d 73d1 5fbd 6029 b23c 3de8 6f3c
000003c0: ae7a 303d e689 a83c 2ee6 7bbc 0651 093d
000003d0: fc18 613d 414b b33c 65c6 943d 0166 0fbc
000003e0: 787d dc3c 0a27 8d3c ff44 763d 4ddc e33c
000003f0: 7cb5 4c3d 7c35 37bc f368 0d3d 5f04 6bbc

fc2.bias f4 [300]
0.10700575 -0.0597763 0.06347587 0.10805412 -0.014520081 -0.051903944 0.010323273 -0.08715008
0.070629954 0.03543655 -0.07882273 -0.048531268 -0.06924576 0.09435097 -0.017543806 0.02300091
0.04656538 0.051004957 0.037529424 -0.07150005 0.050621957 -0.045368038 -0.016114088 -0.0065455907
-0.023117473 -0.087880395 -0.015132917 -0.10505625 0.07987652 -0.112365134 0.101184145 0.0026586717
-0.00695931 -0.05346551 0.047595233 -0.05726475 -0.022947261 -0.03040286 -0.010896763 0.07427492
-0.0266847 0.009097678 0.053513397 0.09225305 0.07594418 -0.05949201 0.046033476 -0.0104236435
-0.024264049 -0.10196221 0.12638593 0.019350147 -0.05458607 -0.044483505 -0.064145096 -0.072451875
-0.09638687 -0.0072806654 -0.03646893 -0.06980508 0.12137583 0.08396643 -0.10885841 -0.03826659
-0.094388306 -0.05709944 0.076435454 0.04175561 -0.04231845 0.08618556 -0.012393953 0.06632937
0.12392558 0.10135583 0.12637079 0.106178746 0.058956984 0.01575119 0.096528485 -0.099016905
-0.065023616 0.09704144 0.067779556 -0.017585682 0.09925238 0.023833076 -0.02873704 -0.02027434
-0.04217959 0.019030029 -0.11896592 -0.06209006 -0.08467509 0.065949865 0.07312922 -0.020115655
0.027035106 0.02890181 0.079363756 0.034111224 -0.07537932 -0.023682052 -0.10143428 0.019046778
-0.01800474 0.017379731 -0.0023967207 0.011625677 -0.117966324 0.060688253 -0.022056686 0.033152662
-0.0058103865 0.10306886 -0.091097794 0.050987855 -0.03590758 0.004221601 0.02258578 0.029577563
-0.10274518 0.10164776 0.042205565 -0.014203332 -0.09205153 -0.067763254 -0.00034143712 0.02360675
-0.020680195 0.051712696 0.06625657 -0.07105832 -0.09135411 0.026554147 0.08696029 -0.00034496462
0.01615171 0.043435413 -0.0687418 -0.03338029 -0.057942662 0.047744993 0.02077803 -0.014227087
-0.08880595 -0.07469726 -0.05678988 0.09091468 -0.081521615 -0.10037415 -0.029816208 -0.014136299
0.021999449 0.0014312849 0.019084536 -0.09176485 0.03052019 0.10113312 -0.03036851 -0.054910727
0.119205706 0.040735353 -0.06895043 0.03318508 0.05383123 -0.024150157 0.04181381 -0.0732392
0.08080277 0.017742222 0.047847092 0.03943679 0.06672392 0.04976342 0.101223804 -0.02656232
0.046513297 0.06123979 -0.013741286 0.031595718 -0.096852295 0.069232635 0.106958754 -0.12064099
-0.062152542 0.07525226 0.068032146 0.08837495 -0.13957995 0.082878835 0.086841404 -0.1119659
0.09385846 -0.06105099 -0.027320934 0.0725737 0.03731864 0.062811226 0.045518916 0.08992191
0.0744794 0.075668454 0.0327017 -0.04236267 0.0595721 -0.15910205 0.03252511 0.034566753
0.023464374 0.12324264 -0.027003417 -0.046694044 -0.029674998 0.015436261 0.060423743 0.026348813
0.08176545 0.07179501 0.06773048 0.06773278 -0.056792334 0.0040344554 -0.10119893 -0.08406212
0.029376602 0.0024205772 0.020697318 0.10589681 0.0702998 0.03934824 -0.018885003 0.07054298
0.04252298 0.084388256 -0.11016024 -0.06408296 -0.10346417 0.0802372 0.046722066 -0.038301133
0.0061851083 0.10234364 0.121394336 -0.041216105 0.111251935 -0.096048534 0.0040774173 0.024612678
0.06443088 0.08087593 -0.13318379 0.05608946 0.03166703 -0.0926832 0.11178718 0.07692031
00000000: d525 db3d fed7 74bd a3ff 813d 7a4b dd3d
00000010: a2e5 6dbc 3b99 54bd f222 293c be7b b2bd
00000020: 70a6 903d ea25 113d d06d a1bd b9c8 46bd
00000030: b9d0 8dbd 153b c13d 07b8 8fbc 686c bc3c
00000040: 57bb 3e3d 93ea 503d 74b8 193d 9e6e 92bd
00000050: f858 4f3d d6d3 39bd b101 84bc 657c d6bb
00000060: db60 bdbc a3fa b3bd 0ef0 77bc bb27 d7bd
00000070: 4d96 a33d b11f e6bd a239 cf3d 1c3d 2e3b
00000080: ec0a e4bb a7fe 5abd 38f3 423d 718e 6abd
00000090: e5fb bbbc 6b0f f9bc 5688 32bc 731d 983d
000000a0: df99 dabc 6d0e 153c dd30 5b3d 2bef bc3d
000000b0: 9f88 9b3d e5ad 73bd 998d 3c3d eec7 2abc
000000c0: 66c5 c6bc 90d1 d0bd 506b 013e 3384 9e3c
000000d0: a595 5fbd 5634 36bd 815e 83bd a661 94bd
000000e0: 7b66 c5bd a692 eebb 7260 15bd f7f5 8ebd
000000f0: e493 f83d 97f6 ab3d 28f1 debd 6ebd 1cbd
00000100: a84e c1bd 1ae1 69bd 318a 9c3d ee07 2b3d
00000110: 1c56 2dbd 0e82 b03d 0210 4bbc b1d7 873d
00000120: b2cc fd3d a593 cf3d 5867 013e 3e74 d93d
00000130: e17c 713d a408 813c bab0 c53d 60c9 cabd
00000140: 1a2b 85bd aabd c63d 02d0 8a3d d90f 90bc
00000150: d544 cb3d 953d c33c f169 ebbc 5f16 a6bc
00000160: 81c4 2cbd dde4 9b3c 67a4 f3bd 2652 7ebd
00000170: 226a adbd b910 873d c6c4 953d 96c9 a4bc
00000180: ba78 dd3c 7dc3 ec3c 7789 a23d 36b8 0b3d
00000190: 7960 9abd dd00 c2bc c7bc cfbd fd07 9c3c
000001a0: ad7e 93bc f05f 8e3c 4d12 1dbb a079 3e3c
000001b0: 5498 f1bd 3f94 783d 39b0 b4bc 16cb 073d
000001c0: 0e65 bebb c415 d33d 7b91 babd a4d8 503d
000001d0: d413 13bd 5b55 8a3b d005 b93c a54c f23c
000001e0: 116c d2bd b32c d03d bedf 2c3d 18b5 68bc
000001f0: 8385 bcbd 76c7 8abd ea02 b3b9 f162 c13c
00000200: 8369 a9bc b1d0 533d 86b1 873d 0687 91bd
00000210: dd17 bbbd 1588 d93c 3d18 b23d 5edc b4b9
00000220: 9750 843c 55e9 313d 80c8 8cbd c5b9 08bd
00000230: 4955 6dbd 4190 433d b036 aa3c ba18 69bc
00000240: e5df b5bd e1fa 98bd 819c 68bd 7a31 ba3d
00000250: cef4 a6bd f690 cdbd 1f41 f4bc ef9b 67bc
00000260: 3038 b43c f499 bb3a 2c57 9c3c 36ef bbbd
00000270: 7a05 fa3c e21e cf3d 62c7 f8bc 12ea 60bd
00000280: 1f22 f43d 1dda 263d e235 8dbd 14ed 073d
00000290: 237e 5c3d 8dd6 c5bc f544 2b3d 6ffe 95bd
000002a0: ec7b a53d 2358 913c 50fb 433d 7988 213d
000002b0: 8da6 883d bad4 4b3d 6d4e cf3d 3999 d9bc
000002c0: ba84 3e3d 93d6 7a3d 2123 61bc 836a 013d
000002d0: 7f5a c6bd d7c9 8d3d 310d db3d a012 f7bd
000002e0: aa93 7ebd db1d 9a3d 7054 8b3d edfd b43d
000002f0: 0cee 0ebe 61bc a93d e8d9 b13d 614e e5bd
00000300: dd38 c03d 9a10 7abd 27d0 dfbc 85a1 943d
00000310: 6edb 183d 2ca3 803d 0b72 3a3d fa28 b83d
00000320: a888 983d 10f8 9a3d 38f2 053d 7b84 2dbd
00000330: e001 743d a6eb 22be 0d39 053d de95 0d3d
00000340: 5c38 c03c a366 fc3d 4536 ddbc 4142 3fbd
00000350: fb18 f3bc 5fe8 7c3c e37e 773d 77d9 d73c
00000360: a574 a73d 4309 933d 47b6 8a3d 7cb7 8a3d
00000370: 149f 68bd 7733 843b 6241 cfbd c328 acbd
00000380: 33a7 f03c 8ca2 1e3b 6c8d a93c 6de0 d83d
00000390: 57f9 8f3d 9f2b 213d b9b4 9abc d778 903d
000003a0: 942c 2e3d c0d3 ac3d b19b e1bd ed3d 83bd
000003b0: 06e5 d3bd 6753 a43d a35f 3f3d a6e1 1cbd
000003c0: 73ac ca3b 8b99 d13d 989d f83d 38d2 28bd
000003d0: 0ed8 e33d 18b5 c4bd db9b 853b 87a0 c93c
000003e0: 56f4 833d 48a2 a53d 5561 08be 10be 653d
000003f0: 4ab5 013d b1d0 bdbd adf0 e43d 6588 9d3d

fc3.weight f4 [1, 300]
0.06322249 -0.025722489 0.025991527 0.037187073 -0.0440886 -0.027892932 -0.033415377 -0.08052463
0.09278003 0.056127034 -0.04056067 -0.026905749 -0.05857647 0.0554967 -0.108268715 0.060007464
0.031974494 0.03126139 0.021820039 -0.036266975 0.02891863 -0.027357891 -0.03974072 0.052616596
-0.031591903 -0.02999882 -0.036100604 -0.02320469 0.023342857 -0.026782196 0.030172566 -0.11070378
-0.045707293 -0.045493733 0.05493765 0.16125563 -0.03739663 -0.03634968 0.109799206 0.03446037
-0.036832437 -0.06507596 0.025458712 0.046076987 0.023339335 -0.0544405 0.02011262 0.0759082
0.056478497 -0.038371395 0.022193212 0.12181544 -0.0758718 -0.027875137 -0.032315183 -0.040899433
-0.023011917 -0.041958723 -0.0371048 -0.07054164 0.03088361 0.027983798 -0.04829681 -0.037583143
-0.048674397 -0.063823946 0.05833501 0.1401673 0.09571134 0.018264804 -0.03602654 0.027081111
0.030626751 0.025287814 0.028189067 0.029753903 0.03219977 0.1420145 0.029666897 -0.11424855
-0.038312677 0.048417233 0.05677261 0.17543139 0.03717407 0.07473655 0.2908496 -0.036453873
-0.059940487 0.02951567 -0.043806363 -0.06512267 -0.028904403 0.074182354 0.084706314 -0.036917903
0.041108403 0.16680938 0.11423947 -0.049098026 -0.042819977 -0.05271234 -0.02576459 0.03911263
0.20677537 0.05804404 -0.034877058 0.13984743 -0.020759882 0.04787952 -0.057978738 0.023999946
0.11598269 0.03217722 -0.03413471 0.036978584 -0.048173152 0.04804667 0.16316801 0.03521922
-0.027531246 0.030308878 0.073028475 -0.07062423 -0.030662736 -0.033807363 0.04581507 0.14716163
-0.035501618 0.099131204 0.15625338 -0.05473176 -0.027582055 -0.04720204 0.033813626 0.039046638
0.099770166 0.03663006 -0.046465814 -0.06340268 -0.025268469 0.032570034 0.040458914 0.12592347
-0.034311872 -0.034776445 -0.027389353 0.016500149 -0.029900031 -0.043258157 -0.10191104 -0.04655038
0.047879413 0.062948175 0.17037676 -0.03192731 0.036508456 0.050131876 -0.032817397 -0.023887267
0.034162924 0.04788713 -0.037064377 0.07612341 0.028308615 -0.19487192 0.057260346 -0.052462097
0.035977654 0.030939054 0.030930115 0.038977303 0.09987995 0.034762956 0.031704154 0.13727623
0.044361047 0.018896347 -0.059534382 0.04261694 -0.034567773 0.029773219 0.026901962 -0.07329674
-0.10352497 0.09333213 0.05490435 0.09219836 -0.04798263 0.048037667 0.04514696 -0.034857325
0.039553165 -0.05854002 -0.10213166 0.027070843 0.048720803 0.035568755 0.030983308 0.03913805
0.023481976 0.02770667 0.04293113 -0.048848554 0.027759193 -0.04829511 0.033193406 0.027592937
0.21320637 0.022493677 0.0064907563 -0.021871133 -0.058427885 0.07249465 0.05112096 -0.20454521
0.025927564 0.023924619 -0.14067891 0.055164162 -0.14187646 0.036979534 -0.022165997 -0.024858452
-0.035333384 0.052355748 -0.21430308 0.044202615 0.033544037 0.034855574 0.10169225 0.024787871
0.040711083 0.036279473 -0.025681872 -0.029403226 -0.052952237 0.033065077 0.059108812 -0.03443437
-0.0670982 0.025021471 0.033002805 -0.026167406 0.036876332 -0.049596168 -0.028509501 0.01814434
0.02640561 0.050233744 -0.059270628 0.046634912 0.03685687 -0.06214297 0.038738783 0.041791216
00000000: cb7a 813d f8b7 d2bc 2fec d43c 7951 183d
00000010: 3f96 34bd b87f e4bc 90de 08bd 19ea a4bd
00000020: 7503 be3d 76e5 653d f222 26bd 7269 dcbc
00000030: e1ed 6fbd 8250 633d fdbb ddbd 63ca 753d
00000040: b0f7 023d f10b 003d f0bf b23c ae8c 14bd
00000050: c3e6 ec3c a81d e0bc 2ac7 22bd 8084 573d
00000060: 8366 01bd 16c0 f5bc 3ade 13bd c317 bebc
00000070: 8539 bf3c 5666 dbbc 752c f73c aab8 e2bd
00000080: 9237 3bbd a357 3abd 4d06 613d 3220 253e
00000090: 352d 19bd 67e3 14bd 68de e03d 5126 0d3d
000000a0: 9cdd 16bd 8b46 85bd ca8e d03c 39bb 3c3d
000000b0: 2232 bf3c 00fd 5ebd 39c3 a43c c275 9b3d
000000c0: ff55 673d 532b 1dbd 8ace b53c 607a f93d
000000d0: ad62 9bbd 665a e4bc ed5c 04bd 2a86 27bd
000000e0: 7d83 bcbc e9dc 2bbd 34fb 17bd 2378 90bd
000000f0: a0ff fc3c 473e e53c e0d2 45bd c8f0 19bd
00000100: ce5e 47bd 21b6 82bd b1f0 6e3d 0488 0f3e
00000110: 4f04 c43d 12a0 953c 9190 13bd 35d9 dd3c
00000120: f4e4 fa3c 6428 cf3c c2ec e63c 75be f33c
00000130: e8e3 033d 406c 113e fe07 f33c 25fb e9bd
00000140: c1ed 1cbd 2651 463d 658a 683d 49a4 333e
00000150: d643 183d 7a0f 993d 3dea 943e a850 15bd
00000160: 2884 75bd d9ca f13c 4d6e 33bd 095f 85bd
00000170: edc8 ecbc ebec 973d 817a ad3d 3a37 17bd
00000180: 4961 283d 14d0 2a3e 62f6 e93d 031b 49bd
00000190: 0064 2fbd e5e8 57bd 4310 d3bc 9134 203d
000001a0: ecbc 533e 96bf 6d3d 3fdb 0ebd 2a34 0f3e
000001b0: a110 aabc 511d 443d 1d7b 6dbd 899b c43c
000001c0: 5588 ed3d 43cc 033d d6d0 0bbd db76 173d
000001d0: 3651 45bd 96cc 443d 8415 273e 0742 103d
000001e0: 3589 e1bc 534a f83c f48f 953d 70a3 90bd
000001f0: 6b30 fbbc 9779 0abd 95a8 3b3d 8ab1 163e
00000200: 256a 11bd 4d05 cb3d e300 203e 692e 60bd
00000210: c3f3 e1bc ed56 41bd 2880 0a3d 5eef 1f3d
00000220: 4d54 cc3d 6709 163d f052 3ebd 44d9 81bd
00000230: d2ff cebc 2868 053d 3fb8 253d 15f2 003e
00000240: 9b8a 0cbd bf71 0ebd a35f e0bc 522b 873c
00000250: e9f0 f4bc 772f 31bd bcb6 d0bd 9cab 3ebd
00000260: 341d 443d f9ea 803d 3f77 2e3e 36c6 02bd
00000270: e489 153d 1557 4d3d 896b 06bd 3baf c3bc
00000280: 6cee 0b3d 4c25 443d d1d0 17bd 97e6 9b3d
00000290: 78e7 e73c 818c 47be d389 6a3d 7fe2 56bd
000002a0: 4e5d 133d e673 fd3c 2761 fd3c aaa6 1f3d
000002b0: dc8d cc3d 9a63 0e3d 37dc 013d 2492 0c3e
000002c0: eeb3 353d 83cc 9a3c 53da 73bd 1a8f 2e3d
000002d0: f096 0dbd f7e6 f33c 8161 dc3c 9a1c 96bd
000002e0: e604 d4bd ea24 bf3d 62e3 603d 7ed2 bc3d
000002f0: 6f89 44bd 25c3 443d 05ec 383d 8ec6 0ebd
00000300: 8002 223d a9c7 6fbd 672a d1bd acc3 dd3c
00000310: 778f 473d 8bb0 113d b5d0 fd3c 384f 203d
00000320: 465d c03c 19f9 e23c 8dd8 2f3d 6c15 48bd
00000330: 3f67 e33c 18d1 45bd cff5 073d 950a e23c
00000340: c552 5a3e a944 b83c 69b0 d43b 172b b3bc
00000350: 1452 6fbd 1378 943d 3664 513d 4d74 51be
00000360: 0b66 d43c 90fd c33c 220e 10be d1f3 613d
00000370: 1048 11be da77 173d 7795 b5bc f4a3 cbbc
00000380: bdb9 10bd fb72 563d 4472 5bbe cd0d 353d
00000390: 7965 093d b8c4 0e3d 0744 d03d ef0f cb3c
000003a0: aac0 263d c999 143d ca62 d2bc 09df f0bc
000003b0: 72e4 58bd 3f6f 073d 151c 723d 0e0b 0dbd
000003c0: c86a 89bd d4f9 cc3c f32d 073d 075d d6bc
000003d0: a30b 173d 5a25 4bbd c28c e9bc 70a3 943c
000003e0: 9450 d83c e6c1 4d3d c2c5 72bd 4004 3f3d
000003f0: 3bf7 163d a089 7ebd 8fac 1e3d 442d 2b3d
