checkpoint_agent_1_actor.pth (torch_old, 524675 bytes, 6 tensors)

fc1.weight f4 [400, 24]
0	0xbd216af4	-0.03940864
1	0x3db997c1	0.09062148
2	0xbba0503a	-0.0048923763
3	0x3df146c0	0.117810726
4	0xbd0c6d94	-0.03428419
5	0x3b76cb49	0.0037657788
6	0x3c35329b	0.011059429
7	0x3d80e428	0.06293517
8	0xbd3980a8	-0.04528871
9	0x3dc2cd56	0.09511821
10	0x3ce8d23c	0.02842056
11	0x3e0319f7	0.12802874
12	0xbd2de05c	-0.042450294
13	0xbcc17002	-0.02361298
14	0xbbd5fb1e	-0.0065301796
15	0x3dd9c3fe	0.10633086
16	0xbd8f7460	-0.07004619
17	0x3e0f6a06	0.14005288
18	0xbd03c7f6	-0.03217312
19	0x3cafd7c6	0.021465193
20	0xbb6b5803	-0.0035910613
21	0xbd8ad939	-0.06779713
22	0x3ca48aee	0.020085778
23	0xbb6b201a	-0.0035877288
24	0xbca2c35d	-0.019868547
25	0x3d78c230	0.060732067
26	0x3d9f7532	0.07786025
27	0x3cd2045d	0.025636846
28	0x3c7b8c7b	0.015353317
29	0x3d163f75	0.03668161
30	0x3dc9fbb7	0.09862464
31	0x3cda65c4	0.026659854
32	0xbd2ed2dc	-0.04268156
33	0x3d0f3f88	0.034972697
34	0xbd1fb54f	-0.03899127
35	0x3d41cb76	0.047313176
36	0x3d309ded	0.04311936
37	0x3deaa137	0.114565305
38	0xbbaaba3a	-0.005210188
39	0x3c97da8a	0.018536825
40	0x3c28357f	0.010266661
41	0x3dab5d6b	0.083674274
42	0xbc45ecd3	-0.012080389
43	0x3d9f06d1	0.07764972
44	0xbbae2421	-0.0053143655
45	0x3dba679e	0.09101795
46	0x3c08e4d8	0.008355342
47	0x3d93bc76	0.072136804
48	0x3bf774a0	0.0075517446
49	0xbda235ad	-0.07920394
50	0xba513201	-0.00079801684
51	0x3da1316f	0.07870757
52	0xbc765f9d	-0.015037444
53	0x3d81e032	0.0634159
54	0xbd310a6f	-0.04322284
55	0x3dabc6dd	0.083875395
56	0xbc298c0f	-0.010348334
57	0xbc62974b	-0.013830016
58	0xbc7229a3	-0.014780435
59	0x3d3482d5	0.044070084
60	0xbd316ff3	-0.043319654
61	0x3d1e53a1	0.038653973
62	0xbb2618c7	-0.0025344358
63	0x3cdfbad4	0.027310766
64	0xbd993350	-0.0748049
65	0xbd21fd87	-0.039548423
66	0xbca9b3d4	-0.020715632
67	0xbd52cf36	-0.051467143
68	0x3d2b27da	0.041786052
69	0xbd87e85c	-0.06636116
70	0xbccc420b	-0.024933835
71	0xbdce9094	-0.1008617
72	0x3df07dfe	0.11742781
73	0xbe90fd02	-0.2831803
74	0x3caf221a	0.021378566
75	0xbcc99a97	-0.024609847
76	0xbdb43584	-0.0879927
77	0x3e5ddbb4	0.21665841
78	0x3c9fe92c	0.019520365
79	0x3c9fb104	0.019493587
80	0x3de66e67	0.11251526
81	0xbe430937	-0.19046484
82	0xbc40d06f	-0.011768444
83	0x3dfa85ff	0.12232589
84	0x3cde74cb	0.0271553
85	0x3e1096f1	0.1412008
86	0xbbb098e2	-0.005389319
87	0x3e38525f	0.18000172
88	0x3dba890d	0.091081716
89	0xbe115db4	-0.14195901
90	0xbbee3686	-0.0072696833
91	0x3d4094c0	0.04701686
92	0x3d2db6f2	0.0424108
93	0x3dc9855b	0.09839889
94	0x3d3cbdd9	0.04607949
95	0x3da3a311	0.07990087
96	0xbd054b45	-0.032542486
97	0x3d66a946	0.056313775
98	0xbbe9c232	-0.0071337456
99	0x3e11b943	0.14230828
100	0x3d15fda8	0.03661886
101	0x3da882b3	0.08228054
102	0xbb2a91d7	-0.0026026869
103	0x3e18597d	0.14877887
104	0x3c9a55d8	0.018839762
105	0x3d28b008	0.0411835
106	0x3d61fd42	0.055173166
107	0x3dc6f95e	0.09715532
108	0xb94699be	-0.00018940025
109	0x3b3b3373	0.0028564602
110	0x3d8c3430	0.068458915
111	0x3dd071b5	0.10177938
112	0x3c434a72	0.011919605
113	0x3d4785c5	0.048711557
114	0x3be5012e	0.006988666
115	0x3decdab8	0.11565155
116	0xbda9104c	-0.082550615
117	0xbcbb4698	-0.02286081
118	0x3c6d5423	0.014485392
119	0x3e3072bb	0.17231266
120	0xbdb84d6e	-0.089991435
121	0x3d317e5b	0.043333393
122	0x3d6bf41a	0.05760584
123	0x3d0b5d3e	0.03402447
124	0xbd820fdc	-0.06350681
125	0x3c8ee3ff	0.017442701
126	0x3d1d6552	0.038426705
127	0xbc5e3dc8	-0.0135645345
128	0xbcf3e76f	-0.029773442
129	0x3d21a127	0.039460327
130	0xbda8e10e	-0.08246051
131	0xbd9902ca	-0.07471235
132	0x3c18f027	0.0093346005
133	0xbd95e119	-0.073183246
134	0xbd26e1f3	-0.040742826
135	0xbd599ae0	-0.053126216
136	0xbd312a51	-0.043253247
137	0xbcdbb68b	-0.026820442
138	0x3d00cc28	0.0314447
139	0xbc9804dc	-0.018557005
140	0x3d31bb10	0.043391287
141	0x3c6688a2	0.014070662
142	0x3ce56378	0.028001532
143	0xbd6a401d	-0.05719005
144	0x3d0a5ab1	0.033777896
145	0xbd10a57c	-0.03531407
146	0xbdc33762	-0.09532048
147	0xbd048cbc	-0.032360777
148	0xbdd07f75	-0.101805605
149	0x3cd11178	0.025521025
150	0xbc1b9886	-0.009496814
151	0x3c454817	0.012041113
152	0xbcda865e	-0.0266754
153	0xbe0a332e	-0.13496086
154	0xbad36fd5	-0.0016131351
155	0x3d5accf9	0.053418133
156	0xbca203e4	-0.019777246
157	0x3ddf8dc3	0.10915711
158	0xbab01041	-0.0013432578
159	0x3d036168	0.032075316
160	0x3c388def	0.011264308
161	0xbdc4935d	-0.0959842
162	0x3d727eab	0.05920283
163	0x3c9140a6	0.017731022
164	0xbd40bf0b	-0.047057193
165	0x3d1359fe	0.035974495
166	0x3d525020	0.051345944
167	0x3d4bc165	0.049744982
168	0x3d0ec3f2	0.034854837
169	0xbc0a9055	-0.008457263
170	0x3d1d63fe	0.038425438
171	0xbdb7438a	-0.08948429
172	0xbd9b337d	-0.0757818
173	0xbd0019d1	-0.03127462
174	0x3d6a23cb	0.05716304
175	0xbe1585da	-0.14601842
176	0x3c792057	0.015205464
177	0xbe18aef2	-0.14910486
178	0xbcaafa78	-0.020871386
179	0xbdab12e7	-0.08353215
180	0x3d195c25	0.03744139
181	0xbe409f7e	-0.18810841
182	0xbc97cacf	-0.018529324
183	0xbdab9680	-0.08378315
184	0xbc58c9cd	-0.013231707
185	0xbe2ea316	-0.170544
186	0xbd19370d	-0.037406016
187	0xbc8ef7f9	-0.017452227
188	0x3d94c770	0.07264602
189	0xbe745ed3	-0.23864298
190	0xbd3583ad	-0.04431503
191	0xbd85fc24	-0.06542233
192	0x3d6b295c	0.05741249
193	0x3d5ca3b6	0.053867064
194	0xbcf8b8c3	-0.030361539
195	0xbccea62e	-0.025225725
196	0xbe2e363d	-0.17012878
197	0x3d57b926	0.052666806
198	0x3c1ed5d9	0.00969454
199	0x3d1e1537	0.03859445
200	0x3d221119	0.039567087
201	0x3d8c48a0	0.068497896
202	0xbc5798b0	-0.013158962
203	0xbdde985e	-0.108689055
204	0xbdef1a50	-0.116749406
205	0x3df0914d	0.11746464
206	0x3cb19a20	0.021679938
207	0xbdfb9b66	-0.12285499
208	0x3c7cecb8	0.0154372975
209	0x3bef54d0	0.0073038116
210	0xbcd68a82	-0.026189093
211	0xbd6fc593	-0.05853803
212	0xbdf95552	-0.12174477
213	0x3e437332	0.19086912
214	0x3c699711	0.014257208
215	0xbc910975	-0.017704705
216	0x3cd0c64d	0.025485182
217	0x3d8da02b	0.06915315
218	0xbced5240	-0.028969884
219	0x3d77dc2b	0.060512703
220	0xbca3b8b2	-0.01998553
221	0x3dc9e0d2	0.09857334
222	0xbd3bf9f3	-0.045892667
223	0xbaf2e2c7	-0.001853072
224	0xbd4363f3	-0.04770274
225	0x3de4bf7c	0.11169335
226	0xbd3648fd	-0.0445032
227	0x3e0b0192	0.13574818
228	0xbaa3d847	-0.0012500369
229	0x3d06d719	0.032919977
230	0x3c2b3dd1	0.01045175
231	0x3dd281b7	0.102786474
232	0x3d2beee8	0.041975886
233	0x3e13e1c6	0.14441594
234	0x3d7bf98b	0.06151728
235	0x3e031816	0.12802157
236	0xbc470616	-0.012147447
237	0xbb124f31	-0.0022325034
238	0x3b80d8a0	0.0039320737
239	0x3e06c387	0.13160525
240	0xbc8a70e9	-0.016899543
241	0xbdc64c82	-0.096825615
242	0xbd82c404	-0.06385043
243	0x3cbb276b	0.022845944
244	0x3c4cdb9f	0.012503534
245	0xbe378de6	-0.17925224
246	0xbd0e0246	-0.034670137
247	0x3d815315	0.06314675
248	0xbd32c009	-0.04364017
249	0xbd552038	-0.05203268
250	0xbcd1c188	-0.025604978
251	0x3d428815	0.04749306
252	0x3d883cf8	0.06652254
253	0xbde039bb	-0.10948511
254	0xbc86440c	-0.01638987
255	0x3d1a10f7	0.037613835

fc1.bias f4 [400]
0	0xbbf6f831	-0.007536911
1	0xbe4d9c79	-0.20079221
2	0xbd8c1354	-0.06839624
3	0x3d1888a2	0.03723968
4	0xbcd5ef15	-0.02611498
5	0xbab40049	-0.0013732995
6	0xbe21a920	-0.15787172
7	0x3e2ee071	0.17077805
8	0xbe286942	-0.16446403
9	0xbd078768	-0.033088118
10	0x3e3563f0	0.17713904
11	0x3c95597e	0.01823115
12	0x3d9676fa	0.07346912
13	0xbc8a0bb0	-0.016851276
14	0x3e851cb4	0.2599846
15	0xbd8c2785	-0.06843475
16	0xbe2ded35	-0.16985019
17	0x3d6c7d5e	0.057736747
18	0xbd5bd016	-0.053665243
19	0x3e5288e4	0.20560032
20	0xbcf97ae0	-0.0304541
21	0x3e783e2a	0.24242464
22	0xbe32188c	-0.17392176
23	0xbe10aff1	-0.14129616
24	0x3e751cba	0.2393674
25	0xbe1e1ac8	-0.15439904
26	0x3d814edc	0.06313869
27	0x3dbeaff5	0.09310905
28	0x3dd822bc	0.105535
29	0xbe111fff	-0.14172362
30	0x3dc67cf2	0.096918
31	0xbd95a85c	-0.073075026
32	0xbe3265f5	-0.17421706
33	0xbe7cf62a	-0.24703279
34	0xbe19d259	-0.15021648
35	0xbd11211b	-0.035431962
36	0xbe12da34	-0.1434105
37	0xbe022ac0	-0.1271162
38	0xbe2204c5	-0.15822132
39	0xbd34e7e3	-0.044166457
40	0xbe19d2d1	-0.15021826
41	0x3d473f42	0.04864431
42	0xbddee3fb	-0.108833276
43	0xbe0460e3	-0.12927584
44	0xbe2aa2bd	-0.16663642
45	0x3b1b52a8	0.002370039
46	0x3e3e56ea	0.18587843
47	0x3db97ab9	0.090566106
48	0xbbb5004a	-0.005523716
49	0x3c2d55bc	0.010579523
50	0x3d978518	0.073984325
51	0x3c2c383f	0.010511457
52	0x3e00d710	0.1258204
53	0x3e38c9b2	0.1804569
54	0x3ba444f7	0.005013104
55	0x3e07fcae	0.13279983
56	0xbe28ac4e	-0.16471979
57	0x3d9be687	0.07612329
58	0xbcf55c90	-0.029951364
59	0xbdc793a4	-0.09744957
60	0x3e6c0fa9	0.23052849
61	0x3d0fb6c6	0.035086416
62	0xbd35f575	-0.04442354
63	0xbe0584e5	-0.13038976
64	0xbce28841	-0.027652862
65	0xbce57f9b	-0.028014949
66	0xbd874085	-0.06604103
67	0x3de8f68f	0.11375152
68	0xbd2f4369	-0.042788897
69	0xbcf6ef9d	-0.030143553
70	0xbdab5502	-0.08365823
71	0x3e0e6261	0.13904716
72	0xbd5c440f	-0.053775843
73	0xbe5d3c05	-0.21604927
74	0xbc09a859	-0.008401954
75	0xbd497433	-0.04918308
76	0xbdebe333	-0.11517944
77	0x3d85437e	0.06507014
78	0xbdaf9683	-0.0857363
79	0xbbb92b79	-0.0056509343
80	0x3d553adb	0.052058082
81	0x3d6d669e	0.05795919
82	0xbdcc4128	-0.09973365
83	0xbe1a5cac	-0.15074414
84	0xbdb6e297	-0.08929937
85	0x3d9607bc	0.07325694
86	0x3e5d76f2	0.21627405
87	0xbe1c18c2	-0.1524382
88	0xbdf5e004	-0.12005618
89	0xbd17e924	-0.037087575
90	0xbe01d4da	-0.12678853
91	0xbdea2de4	-0.11434534
92	0xbdc1e2a9	-0.0946706
93	0xbda66981	-0.08125592
94	0xbd178012	-0.03698737
95	0xbe5ad28b	-0.21369378
96	0x3e30347b	0.1720752
97	0xbea8282b	-0.32843146
98	0x3e052357	0.13001762
99	0x3e6eac37	0.23307882
100	0xbd7ca57a	-0.06168125
101	0x3ddd6a6e	0.108113155
102	0x3dc3fb0c	0.09569368
103	0x3d553c02	0.05205918
104	0x3d8927cc	0.06697044
105	0xbe23bc6f	-0.1598985
106	0x3bc98116	0.0061494214
107	0x3cbd7aca	0.02312984
108	0xbb948440	-0.004532367
109	0xbe13c332	-0.1442993
110	0x3c7cf4f5	0.015439262
111	0x3cc6bcfe	0.02426004
112	0xbe06ab86	-0.13151368
113	0x3d969146	0.073519275
114	0x3dc41875	0.09574977
115	0x3dd67300	0.10471153
116	0x3e32f095	0.17474587
117	0x3e026b0e	0.1273615
118	0xbdfdaf4d	-0.123869516
119	0xbd250e7b	-0.040297013
120	0x3de56c22	0.11202265
121	0xbdcd6d17	-0.10030573
122	0xbcf66356	-0.030076664
123	0x3d028da5	0.031873364
124	0x3e95e97a	0.2927969
125	0x3d0417b0	0.032249153
126	0xbe156d89	-0.14592566
127	0x39b00dc0	0.0003357958
128	0xbe19160d	-0.14949818
129	0xbe3ebf5d	-0.18627687
130	0x3e7ac56b	0.24489371
131	0x3e6a6fb0	0.22894168
132	0xbc921869	-0.017833905
133	0x3e0ac134	0.13550264
134	0xbb0f29f6	-0.002184508
135	0xbd6df985	-0.05809929
136	0xbe0c0cdb	-0.13676779
137	0x3cb65915	0.022259274
138	0x3d3ab9f3	0.04558749
139	0x3d068d1a	0.03284941
140	0x3e1203bd	0.14259239
141	0x3d3b3f25	0.045714516
142	0xbdea8303	-0.1145077
143	0x3e025bdd	0.12730356
144	0x3d208038	0.03918478
145	0xbd69790d	-0.05700021
146	0x3d72a8e5	0.0592431
147	0xbd0a4774	-0.03375955
148	0x3e4e6844	0.20156962
149	0xbc236e71	-0.009975062
150	0x3c50b0d5	0.012737473
151	0x3dee5e38	0.116390646
152	0xbd9c35ea	-0.07627471
153	0xbe1a41bb	-0.15064137
154	0xbbd7f936	-0.0065909876
155	0x3ce67498	0.028131768
156	0x3e2feb49	0.17179598
157	0x3e582dd3	0.2111123
158	0xbe11d204	-0.14240271
159	0x3d865c95	0.06560627
160	0x3c9c1a67	0.019055558
161	0xbe3acc11	-0.18241908
162	0x3e5415a3	0.20711379
163	0xbc6cec8a	-0.014460692
164	0x3d3422c7	0.04397848
165	0xbe2943dd	-0.16529794
166	0xbe0b7b5d	-0.13621278
167	0x3c7b7e1c	0.015349891
168	0x3e6ff953	0.23434953
169	0xbdea5c08	-0.11443335
170	0xbe4da7e7	-0.20083581
171	0x3d4e2788	0.05033067
172	0xbdf1192f	-0.117723815
173	0x3db6f36d	0.089331485
174	0xbd989bed	-0.074516155
175	0x3dde4d75	0.108546175
176	0x3e578255	0.21045811
177	0x3de6c544	0.11268094
178	0xbd036cbf	-0.03208613
179	0xbe57e16d	-0.21082087
180	0xbe192859	-0.14956798
181	0xbe1e82dc	-0.15479606
182	0xbdb871fc	-0.09006116
183	0x3e32cdaa	0.17461267
184	0x3e624b65	0.22099073
185	0x3dd9106d	0.10598836
186	0xbda465de	-0.08027242
187	0x3ddc4a59	0.10756368
188	0x3e3f57c3	0.18685822
189	0xbc15a653	-0.009133893
190	0x3c1970ac	0.009365242
191	0x3cadad7f	0.021200893
192	0x3dce6d97	0.10079496
193	0xbd549a38	-0.051904887
194	0xbe13d133	-0.14435272
195	0xbd26ad5e	-0.04069268
196	0x3d9691f4	0.07352057
197	0xbdcee708	-0.101026595
198	0x3dbe3f6f	0.09289443
199	0x3d9b73e2	0.07590462
200	0xbde16d98	-0.110072315
201	0x3c979d30	0.01850757
202	0x3e1b5e7f	0.15172766
203	0xbe616dc0	-0.22014523
204	0x3e439458	0.19099557
205	0xbe0dbbcd	-0.13841172
206	0x3e47c9e5	0.1951061
207	0xbdde3984	-0.10850814
208	0xbe6f2c3b	-0.23356716
209	0x3dc9ff7f	0.09863185
210	0x3df4e0f5	0.1195697
211	0xbe051cfc	-0.12999338
212	0xbe0ac228	-0.13550627
213	0x3c1c0b0d	0.009524119
214	0xbd1ea34f	-0.038729962
215	0xbc385484	-0.011250619
216	0x3e43a8b1	0.1910732
217	0xbe2b7974	-0.1674555
218	0xbde792e2	-0.113073125
219	0x3e1aa0e5	0.15100439
220	0x3d02d552	0.03194172
221	0xbdbbfcae	-0.09179054
222	0x3daa6999	0.083209224
223	0x3d4c1c65	0.049831767
224	0x3d3a07ab	0.04541747
225	0xbd947314	-0.07248512
226	0x3e0f8223	0.14014487
227	0x3e00f08b	0.1259176
228	0xbe0ab41f	-0.13545273
229	0xbe1b1bb4	-0.15147287
230	0xbd8cee97	-0.06881445
231	0x3dda0310	0.106451154
232	0x3dc76ac9	0.097371645
233	0xbde4b2bf	-0.111669056
234	0x3d00b920	0.03142655
235	0xbe1ba3da	-0.15199223
236	0xbcec1540	-0.028818727
237	0xbd6853b4	-0.05672045
238	0x3d308373	0.04309411
239	0x3d2f565a	0.04280696
240	0x3cb2db84	0.021833189
241	0x3c8159ac	0.01578983
242	0x3d4bdd1f	0.049771424
243	0xbe3a902e	-0.18219063
244	0x3e0c2f5b	0.1368994
245	0x3e232f05	0.15935905
246	0xbddb07bf	-0.10694837
247	0xbc8d17b5	-0.017223218
248	0x3d577eab	0.052611034
249	0x3e292859	0.16519298
250	0x3de47914	0.11155906
251	0xbe401d4a	-0.18761173
252	0x3db2769a	0.08714028
253	0x3c534106	0.012893921
254	0xbe04aace	-0.12955782
255	0x3d75389a	0.059868433

fc2.weight f4 [300, 400]
0	0x3cf60c00	0.030035019
1	0xbd87d4b1	-0.066323645
2	0xbc87f712	-0.016597304
3	0x3dda964e	0.106731996
4	0xbd43b91e	-0.047783963
5	0x3a9c23d3	0.0011912532
6	0x3cbf8b70	0.023381919
7	0x3d9abe59	0.07555837
8	0xbca03fc4	-0.019561656
9	0xbd53dc01	-0.051723484
10	0xbc076a5d	-0.008265105
11	0x3da2cf37	0.07949679
12	0x3daeb56b	0.085306965
13	0xbc97a360	-0.01851052
14	0x3c27ea77	0.010248772
15	0x3cb11e9f	0.021621047
16	0x3c7a511a	0.015278125
17	0x3d847f3f	0.06469583
18	0x3a7b3d4a	0.0009584023
19	0xbd31905c	-0.043350562
20	0xbd644a6a	-0.05573503
21	0xbd0472a9	-0.03233591
22	0x3d1567dd	0.036476005
23	0xbc363d58	-0.011123024
24	0xbd909e35	-0.070614256
25	0x3ca8954d	0.020579005
26	0x3da50500	0.08057594
27	0x3d6d2aef	0.057902273
28	0xbcbdd3ee	-0.023172345
29	0x3da1f071	0.07907189
30	0xbbb9be50	-0.005668439
31	0x3d4c6ad2	0.04990656
32	0x3dae4151	0.08508552
33	0x3d3b922f	0.04579371
34	0xbdf7bc7f	-0.120965
35	0xbd95861d	-0.07300971
36	0x3c97636c	0.018480025
37	0x3c52ff91	0.012878315
38	0xbcf75007	-0.030189527
39	0x3ce92936	0.028462034
40	0x3c868687	0.01642157
41	0xbd2283ef	-0.039676603
42	0x3d2cb578	0.04216525
43	0xbd131005	-0.03590395
44	0xbcb1407c	-0.021637194
45	0x3d2371a8	0.039903313
46	0x3d88bb22	0.06676318
47	0x3d5c59f7	0.053796735
48	0x3d8e3dd5	0.06945387
49	0x3c8ca105	0.017166624
50	0xbccf609b	-0.02531462
51	0x3cf8c1cd	0.030365849
52	0x3d65212f	0.05593985
53	0xbceafce0	-0.028685033
54	0x3d5b7bff	0.05358505
55	0xbc68dde0	-0.014213055
56	0x3cd9c946	0.026585232
57	0xbbc058f0	-0.005869977
58	0x3ba03c9e	0.0048900386
59	0x3ca1fe03	0.019774443
60	0x3c63d7ba	0.013906414
61	0xbdfc37f4	-0.1231536
62	0x3b3f400a	0.0029182457
63	0x3d039c8c	0.032131717
64	0xbcddb129	-0.027062016
65	0x3df6e438	0.12055248
66	0x3dabee96	0.08395116
67	0x3d9d1d62	0.0767162
68	0xbd3e028e	-0.046389155
69	0x3e02343c	0.12715238
70	0x3d936080	0.0719614
71	0x3dc5da72	0.09660806
72	0x3c58a413	0.013222712
73	0xbd9f41c5	-0.077762164
74	0xbd5fc33c	-0.05462955
75	0x3d083af8	0.033259362
76	0x3dacfc4d	0.0844656
77	0x3d96272f	0.073316924
78	0x3da2c725	0.0794814
79	0xbceb45ab	-0.028719744
80	0x3d01c2e5	0.031680007
81	0x3da6e514	0.08149162
82	0x3e835995	0.25654283
83	0x3ce38db1	0.027777525
84	0x3dd5c497	0.10437887
85	0xbcf1353d	-0.029444331
86	0x3c968415	0.018373528
87	0xbd34d2fa	-0.044146515
88	0x3c70bc39	0.014693313
89	0x3ced96a5	0.029002497
90	0x3c8723e1	0.0164966
91	0x3d056919	0.032570932
92	0xbc7937bb	-0.015211041
93	0x3c579d5c	0.013160076
94	0x3e16112a	0.14654985
95	0xbc2c08e2	-0.010500165
96	0x3c6c1616	0.014409563
97	0x3dd242ad	0.10266624
98	0xbd3fe8e8	-0.046852976
99	0xbd0d91fc	-0.03456305
100	0x3cf86164	0.030319877
101	0x3d806dff	0.0627098
102	0x3c67b626	0.014142549
103	0x3dc52d7b	0.09627815
104	0xbb8f1c1b	-0.004367364
105	0x3d0b00f8	0.03393647
106	0x3ca43cdf	0.020048557
107	0x3c34c665	0.011033629
108	0xbb811704	-0.0039395113
109	0xbc9aaa17	-0.018879933
110	0x3d0fdbae	0.035121612
111	0x3c2c026c	0.010498624
112	0x3d34a02c	0.044098064
113	0xba1270c6	-0.00055862626
114	0xbdd86b53	-0.105673455
115	0x3ca757ee	0.02042767
116	0xbc4aa2c1	-0.012367905
117	0xbb85fb54	-0.0040887985
118	0x3e193a37	0.14963613
119	0xbca86d27	-0.02055986
120	0xbba0ef5f	-0.0049113478
121	0xbd23b19b	-0.0399643
122	0x3d3333ca	0.04375056
123	0xbba23760	-0.004950449
124	0x3c4693b7	0.012120179
125	0xbcd5e1e0	-0.026108682
126	0x3d951fa0	0.072814226
127	0xbd843025	-0.06454495
128	0x3bab6259	0.00523023
129	0xbdb271ae	-0.08713089
130	0xbd89e0f9	-0.06732363
131	0x3c8d0070	0.017212123
132	0x3c8445b5	0.01614652
133	0xbbb8b0a8	-0.0056362934
134	0xbd1a0091	-0.037598196
135	0x3ca86158	0.02055423
136	0x3d1c445f	0.03815114
137	0x3c8fb50c	0.017542385
138	0x3d51d2a8	0.051226288
139	0x3ab17058	0.0013537509
140	0xbd069586	-0.03285744
141	0x3d2d492e	0.042306118
142	0x3d38d6c7	0.045126703
143	0x3d2073e5	0.039173026
144	0x3d529032	0.051407047
145	0x3d831453	0.06400361
146	0xbcb04b6c	-0.021520339
147	0x3c695a7c	0.014242765
148	0xbc6dd5eb	-0.014516334
149	0x3d12d50f	0.03584772
150	0x3c600d10	0.013674989
151	0x3dbbfb92	0.091788426
152	0x3d727ac1	0.0591991
153	0xbdb46d60	-0.08809924
154	0x3c911849	0.017711775
155	0x3c3d7d00	0.011565447
156	0x3db0be82	0.086300865
157	0x3d87f7d5	0.06639067
158	0x3d00dd38	0.03146097
159	0xbca05c90	-0.019575387
160	0x3d841dfb	0.06451031
161	0x3cefe10b	0.029282114
162	0x3d70d6ba	0.05879853
163	0x3d4cfe9d	0.050047506
164	0x3db8093c	0.08986136
165	0x3c3766dc	0.011193957
166	0x3caaeee5	0.020865867
167	0x3c040de8	0.008059956
168	0x3d6b6efb	0.057478886
169	0x3d1a757e	0.037709706
170	0xbde7d2cd	-0.11319504
171	0xbce087fd	-0.027408594
172	0xbc0729ca	-0.008249709
173	0x3db6e827	0.08930998
174	0x3d22835c	0.039676055
175	0x3ba5ad8f	0.00505609
176	0xbd3279ea	-0.043573298
177	0x3d1e50c5	0.038651247
178	0xbb8d75f4	-0.0043170396
179	0x3daf71aa	0.085666016
180	0x3d8cf4f7	0.06882661
181	0xbd48746f	-0.048939165
182	0xbc71fb61	-0.014769406
183	0x3d571391	0.052508894
184	0x3dc74415	0.097297825
185	0x3dde27b3	0.10847416
186	0x3b416e22	0.0029515107
187	0x3d6dc11b	0.058045488
188	0x3ccd476b	0.025058469
189	0xbceb0872	-0.02869055
190	0xbc856b6d	-0.016286576
191	0x3c9d5e39	0.019209968
192	0x3e0f6c62	0.14006189
193	0x3d873de2	0.066036
194	0xbd9549e7	-0.072894864
195	0x3d051b22	0.03249658
196	0x3e0fcc5b	0.14042799
197	0x3c6b1719	0.014348769
198	0x3d99159b	0.07474824
199	0xbd90d376	-0.07071583
200	0xbd1b7c7b	-0.03796051
201	0x3d098761	0.033576373
202	0x3cefcd2d	0.02927264
203	0x3d4afe23	0.04955877
204	0xbc9bf82a	-0.019039232
205	0x3c13ea8e	0.00902809
206	0x3d9e3d6d	0.0772656
207	0xbd5a0030	-0.053222835
208	0x3d693cc3	0.056942713
209	0x3d473447	0.04863384
210	0x3d070468	0.032963187
211	0xbbcd5340	-0.0062660277
212	0xbd409bb4	-0.04702349
213	0xbc9c2adc	-0.019063406
214	0x3e5f1aef	0.21787618
215	0xbc24f574	-0.010068286
216	0xbc674a56	-0.014116844
217	0xbd258bb0	-0.04041642
218	0x3c92a23d	0.017899627
219	0x3de7cc76	0.11318295
220	0xbca05a0b	-0.019574186
221	0x3d14f4cd	0.036366273
222	0x3c6f713a	0.014614398
223	0xbb0d6ea7	-0.0021580847
224	0x3dc8420d	0.09778223
225	0xbd3fcb85	-0.04682495
226	0x3da3b1c2	0.07992889
227	0xbcd2770a	-0.025691528
228	0x3d8edc6f	0.06975638
229	0xbc60656a	-0.013696054
230	0x3bfc9044	0.0077076275
231	0x3d55eebd	0.05222963
232	0xbb5752b0	-0.0032855682
233	0xbcf19d98	-0.029494092
234	0xbcc4cb9a	-0.024022866
235	0xbbcd6764	-0.0062684286
236	0x3c0f4234	0.008743811
237	0x3d894404	0.06702426
238	0xbbabe094	-0.0052452777
239	0x3d3be2f0	0.04587072
240	0x3db7d8e1	0.08976913
241	0xbcd3de18	-0.025862738
242	0xbc1b9822	-0.0094967205
243	0x3d02ffd4	0.031982258
244	0x3d0bcc63	0.034130465
245	0x3d9e7a33	0.077381514
246	0xbdc0bc4b	-0.09410914
247	0x3d40098a	0.046884097
248	0x3da1bc69	0.078972645
249	0x3db7e2ce	0.089788064
250	0x3d8d16b5	0.06889097
251	0x3d9b1617	0.07572573
252	0x3c2a7f7c	0.010406371
253	0x3e00da79	0.1258334
254	0x3d193612	0.03740508
255	0x3c97cd62	0.018530551

fc2.bias f4 [300]
0	0x3ca0f580	0.019648314
1	0xbd13271f	-0.03592598
2	0x3cb87767	0.022517873
3	0x3cd7b973	0.026333546
4	0x3be4ad9d	0.006978704
5	0xbd05e7b7	-0.032691684
6	0xbd038b9d	-0.032115567
7	0x3d8f7b8e	0.07005988
8	0x3d22bea2	0.039732583
9	0x3cca0e73	0.024665093
10	0xbc666654	-0.014062483
11	0xbb8c4c48	-0.0042815544
12	0xbbb22339	-0.005436328
13	0x3d70646d	0.058689523
14	0x3d2e1f14	0.042510107
15	0xbccad167	-0.024758054
16	0x3dc2428d	0.0948535
17	0x3d13386a	0.035942473
18	0xbc9fc461	-0.01950282
19	0x3d923126	0.071382806
20	0xbc226033	-0.009910631
21	0x3c9dc0da	0.019256998
22	0x3d13d380	0.036090374
23	0xbc0274cb	-0.007962416
24	0x3dd2b92e	0.102892265
25	0x3d0162c4	0.03158833
26	0xbcff0a46	-0.031132828
27	0xbc03180b	-0.008001338
28	0x3cb39e9a	0.021926213
29	0x3d568660	0.052374244
30	0x3c7dbfd7	0.015487633
31	0x3c7ff70f	0.015622868
32	0x3d6c1557	0.05763754
33	0x3d4d05f8	0.05005452
34	0xbd2596a2	-0.040426858
35	0x3d02a2d0	0.03189355
36	0x3cb3a608	0.021929756
37	0x3d02e08e	0.031952433
38	0x3d0750d9	0.033036087
39	0x3cde5e4d	0.027144575
40	0xba0b4510	-0.00053127203
41	0xbcf1efc6	-0.029533278
42	0x3c451fd1	0.012031511
43	0x3d20e77a	0.039283253
44	0x3d539ee8	0.051665217
45	0x3d5c79d0	0.053827107
46	0x3cd1e0da	0.025619913
47	0xbca19e72	-0.019728873
48	0x3d8ce2c6	0.06879191
49	0xbd482742	-0.048865564
50	0xbb026c72	-0.0019901064
51	0x3b658710	0.003502313
52	0x3d956671	0.0729493
53	0xbd092d28	-0.03349033
54	0x3c0b3011	0.008495347
55	0xbc51dbf3	-0.012808788
56	0x3c6aaade	0.0143229645
57	0xbd53754a	-0.051625527
58	0xbcf6949b	-0.030100157
59	0x3b4d2b24	0.0031306231
60	0xbc5809e8	-0.013185956
61	0xbc9beba3	-0.019033259
62	0x3d28b2e5	0.041186232
63	0x3d79df3b	0.061003905
64	0x3be4a084	0.0069771428
65	0x3bf90df9	0.0076005426
66	0xbdc0ee40	-0.094204426
67	0x3cfe1e43	0.03102029
68	0x3d0c7e48	0.03430012
69	0x3c231abf	0.009955107
70	0x3d2b2554	0.041783646
71	0x3d463cce	0.04839783
72	0xbc912dc7	-0.017722024
73	0xbb98d1be	-0.004663675
74	0x3b4d8501	0.0031359794
75	0x3bd2b4d7	0.006430249
76	0x3d462e04	0.048383728
77	0xbb82e3b0	-0.0039944276
78	0x3d221da4	0.03957905
79	0x3d40be18	0.047056288
80	0xbc8e1b04	-0.017346866
81	0xbceb1b0e	-0.028699424
82	0xbc72e7f4	-0.01482581
83	0xbc88db3d	-0.016706103
84	0x3c898233	0.016785717
85	0x3db39185	0.0876799
86	0xbc47260b	-0.012155066
87	0x3d868c58	0.06569737
88	0x3d02a25d	0.031893123
89	0x3d926a13	0.07149138
90	0xbd4c20be	-0.049835913
91	0x3c7ad479	0.0153094465
92	0x3d54b2be	0.051928274
93	0x3bd67dda	0.0065457644
94	0x3b343af8	0.0027500968
95	0x3d10ebb2	0.035381027
96	0x3c626c9c	0.01381984
97	0xbd021a62	-0.03176344
98	0x3ca7286c	0.020405017
99	0x3d7d264f	0.061804112
100	0x3cec58d0	0.028850943
101	0x3d8b15fb	0.06791302
102	0x3c46cc53	0.012133676
103	0x3b980dee	0.0046403324
104	0x3d6ba932	0.057534404
105	0xbd0d543a	-0.034504153
106	0xbc9d9d36	-0.019240003
107	0xbbb37d3e	-0.0054775765
108	0xba69beec	-0.0008916694
109	0xbd3ecd33	-0.046582412
110	0x3d05b93d	0.03264736
111	0x3bd786f7	0.0065773684
112	0xbcc10e44	-0.023566373
113	0x3bb3c24b	0.005485808
114	0x3cb4508a	0.02201106
115	0x3c012003	0.007881167
116	0xbac22b9e	-0.0014814024
117	0xbd5fb5a0	-0.05461657
118	0xbd58a623	-0.052892815
119	0x3ccba73c	0.024860017
120	0x3d0e13b5	0.034686763
121	0xbd2c523a	-0.042070605
122	0x3ca7f7de	0.020503934
123	0x3d74f9cf	0.05980855
124	0xbdab4ef5	-0.08364669
125	0x3d7addf9	0.061246846
126	0xbd09634b	-0.03354196
127	0x3d599463	0.05312003
128	0x3bdea5ca	0.006794666
129	0x3cae03ec	0.021242104
130	0xbd19726c	-0.037462637
131	0x3c4828f6	0.012216797
132	0xbc33df2c	-0.010978501
133	0x3c341e73	0.010993588
134	0x3d0744b9	0.033024523
135	0x3d837427	0.06418639
136	0xbd34304e	-0.04399138
137	0xbd657cdc	-0.05602728
138	0x3d72a360	0.059237838
139	0xbd55641d	-0.05209743
140	0x3c43b88f	0.011945858
141	0xbd24dff6	-0.04025265
142	0x3d1c7449	0.038196836
143	0x3cb28fb9	0.021797048
144	0xbbe8be45	-0.00710276
145	0xbc818b33	-0.015813446
146	0x3da8bc39	0.082390256
147	0x3d1461b8	0.036226004
148	0xbd051972	-0.03249497
149	0xbc176c1a	-0.009242082
150	0x3cd656bf	0.02616441
151	0xbb3cdea9	-0.002881924
152	0x3c9aec26	0.018911432
153	0x3d96828b	0.07349118
154	0x3cb9832c	0.022645555
155	0xbc587329	-0.01321105
156	0xbced6d7f	-0.028982876
157	0x3cb93298	0.022607133
158	0xbd97b779	-0.074080415
159	0x3d14b2e0	0.0363034
160	0x3caba2d0	0.020951658
161	0xbbc859a2	-0.0061142007
162	0x3d4aa383	0.049472343
163	0x3c81f91e	0.015865859
164	0x3bf98259	0.0076144156
165	0xbc91c822	-0.017795626
166	0x3c1d001a	0.009582544
167	0x3d6357c5	0.055503625
168	0x3d47e1e2	0.048799403
169	0x3ce24e9a	0.02762537
170	0xbca25a9b	-0.019818595
171	0xbd54431b	-0.05182181
172	0x3d3a0012	0.045410223
173	0x3c1636ba	0.009168321
174	0xbc927e54	-0.017882504
175	0x3c4e91ff	0.01260805
176	0x3cf93bab	0.03042396
177	0x3a90791c	0.0011022422
178	0xbc856dba	-0.016287673
179	0x3b9a4caa	0.004708846
180	0xbc945f46	-0.018111836
181	0x3d8fc798	0.07020491
182	0x3d6f7dbf	0.05846953
183	0xba051430	-0.00050765555
184	0x3c3b3d94	0.011428256
185	0xbc44bb1e	-0.012007503
186	0x3ce6ecf1	0.028189154
187	0xbc971986	-0.018444788
188	0xbd39882a	-0.04529587
189	0x3d514590	0.05109173
190	0xbc3b94a4	-0.011449013
191	0x3ce8b447	0.028406275
192	0xbd739852	-0.059471436
193	0xbc807519	-0.015680837
194	0xbc688476	-0.014191737
195	0x3d17aa28	0.037027508
196	0x3d801f70	0.06255996
197	0xbc4e9b9b	-0.012610341
198	0xb95db45f	-0.00021143396
199	0x3d80d020	0.06289697
200	0xbca782a6	-0.02044804
201	0x3c8f4f0d	0.017493749
202	0xbc7e9e0d	-0.015540612
203	0x3c524a8f	0.012835159
204	0x3d1443b4	0.03619738
205	0xbd3f629d	-0.046724904
206	0xbc72bb81	-0.014815212
207	0x3c622fe0	0.01380536
208	0x3bd253c4	0.006418677
209	0xbce7de26	-0.02830417
210	0x3d12b000	0.035812378
211	0xbdab1283	-0.0835314
212	0xbd9c78eb	-0.07640251
213	0xbc3fa99b	-0.011698152
214	0x3c4e52a7	0.012592948
215	0xbd99f1bb	-0.075168096
216	0xbd5c2921	-0.05375016
217	0xbd586424	-0.052829877
218	0xbc971f70	-0.018447608
219	0xbca4eccb	-0.020132443
220	0x3d2f0296	0.042727076
221	0xbcda83b1	-0.026674123
222	0xbca54a3f	-0.020177005
223	0x3c3b77e2	0.0114421565
224	0x3c49fe34	0.012328673
225	0xbc4cdb82	-0.012503507
226	0x3a3243e2	0.00068002765
227	0xbcb2bbfa	-0.02181815
228	0x3db821a4	0.089907914
229	0x3ccf8eeb	0.025336703
230	0xbc50551e	-0.012715606
231	0xbd78f850	-0.060783684
232	0x3d056fce	0.03257733
233	0x3d8813f7	0.06644433
234	0x3b3cdfd5	0.0028819938
235	0x3d26cc96	0.040722452
236	0xbcd2e821	-0.025745453
237	0x3d0340c8	0.032044202
238	0x3d0031d6	0.031297527
239	0xbd4798f2	-0.048729844
240	0x3d103c65	0.035213847
241	0xbe23c84e	-0.15994379
242	0x3d1e108b	0.038589995
243	0xbd3f5b6d	-0.04671805
244	0x3d30f16b	0.043198984
245	0x3c0e9293	0.008701938
246	0x3cfcee99	0.030875491
247	0xbb8d7f6c	-0.0043181684
248	0xbd3d1f8d	-0.046172667
249	0x3d74a20c	0.059724852
250	0x3cdb191c	0.026745372
251	0x3d166482	0.036716945
252	0x3b0ad158	0.0021181908
253	0xbc377baa	-0.011198917
254	0xbd50dd15	-0.05099209
255	0x3d62d837	0.05538198

fc3.weight f4 [2, 300]
0	0xbd03eca3	-0.032208096
1	0xbdd80b56	-0.10549037
2	0xbc7f31a1	-0.015575797
3	0xbd1b1da5	-0.037870068
4	0x394b906c	0.0001941339
5	0x3d827f8d	0.06371985
6	0x3ca68fea	0.020332295
7	0x3ec4e67f	0.38457105
8	0xbd5fd9ef	-0.054651197
9	0x3d422551	0.04739887
10	0x3e31337a	0.17304793
11	0x3e2e3385	0.1701184
12	0x3d0d347d	0.034473885
13	0xbce431fb	-0.027855864
14	0xbcf0c2e0	-0.029389799
15	0xbe38ff2c	-0.1806609
16	0x3e4799c6	0.19492254
17	0x3da5296d	0.08064542
18	0x3da0abeb	0.07845291
19	0xbd6d598e	-0.057946734
20	0xbdb1350f	-0.08652698
21	0xbd361eba	-0.044462897
22	0xbdb5a77b	-0.08869835
23	0xb9d0ff47	-0.00039863048
24	0x3ea52da4	0.32261384
25	0x3e0c510b	0.1370279
26	0x3b5bc1f4	0.0033532353
27	0xbdbf02bb	-0.09326693
28	0x3d98fd73	0.074702166
29	0x3eaf52ea	0.34242946
30	0x3d161804	0.036643997
31	0xbd51a401	-0.051181797
32	0x3e6bb375	0.23017676
33	0xbd156ce6	-0.036480807
34	0xbd80898e	-0.062762365
35	0x3d5d9d5b	0.054105144
36	0x3cf8ef85	0.03038765
37	0x3c901fba	0.017593253
38	0xbcfabe76	-0.030608397
39	0xbd2f0c05	-0.042736072
40	0x3cb6cf63	0.022315687
41	0x3b2302a6	0.0024873405
42	0x3e37c7fb	0.1794738
43	0xbda7f581	-0.08201123
44	0xbcd859be	-0.02640998
45	0x3e281803	0.1641541
46	0x3d06955e	0.03285729
47	0xbd9d8280	-0.076909065
48	0xbdd705f3	-0.104991816
49	0x3af09596	0.0018355127
50	0x3cd51d22	0.026014868
51	0x3e4c7358	0.19965875
52	0x3e899596	0.26871938
53	0x3e02522d	0.1272666
54	0x3cf38856	0.029728096
55	0x3caa6f3e	0.020804998
56	0x3e42d958	0.19028223
57	0xba89de23	-0.0010518472
58	0xbdb4d121	-0.08828951
59	0x3c243553	0.010022479
60	0x3d101a9e	0.035181634
61	0xbbbc23ae	-0.005741558
62	0x3dbfa114	0.09356895
63	0x3db15bee	0.08660112
64	0x3be7d07e	0.0070744148
65	0xbd43dafa	-0.047816254
66	0xbdabc66a	-0.08387454
67	0xbcc57709	-0.024104612
68	0xbd452549	-0.04813126
69	0xbd9708ea	-0.07374747
70	0x3d174d77	0.03693911
71	0x3e8209e2	0.25398165
72	0x3e372cae	0.17888138
73	0xbcffb738	-0.031215295
74	0x3d3a1165	0.045426745
75	0xbbfa5a90	-0.0076401904
76	0x3d7a759f	0.06114733
77	0x3ddb4abe	0.10707615
78	0x3d536683	0.051611435
79	0x3b9ab6fe	0.0047215214
80	0x3d9fc4af	0.07801186
81	0x3da75daa	0.08172162
82	0x3d9107db	0.070815764
83	0xbc882526	-0.016619276
84	0xbd0726e2	-0.032996066
85	0x3de7be0f	0.11315548
86	0xbce69c7f	-0.028150795
87	0xbe102cbb	-0.14079563
88	0x3eb5c92d	0.35505047
89	0xbd18530b	-0.03718857
90	0xbd50ffde	-0.051025264
91	0x3d84b971	0.06480683
92	0x3d2198e5	0.039452452
93	0x3bb2101c	0.0054340493
94	0xbd8257e8	-0.06364423
95	0xbd5ca567	-0.053868677
96	0xbd3b5d12	-0.045743056
97	0x3cb1b961	0.02169484
98	0x3d639a74	0.05556722
99	0xbd429913	-0.047509264
100	0xbcafb3d9	-0.021448063
101	0xbdbe19b4	-0.09282246
102	0xbd42278b	-0.047400992
103	0x3dac09b4	0.08400288
104	0x3d7fc05c	0.062439308
105	0x3a53c295	0.0008078006
106	0xbe27d3c5	-0.16389377
107	0xbc31bb62	-0.010847898
108	0x3de9e126	0.11419897
109	0x3d6a589f	0.057213422
110	0x3e7cf68b	0.24703424
111	0x3e07054a	0.13185611
112	0x3d5de637	0.054174628
113	0x3ddc6a75	0.107624926
114	0x3d64572f	0.055747207
115	0xbd27eda5	-0.04099812
116	0xbcc8f8c6	-0.024532687
117	0xbc3cdae0	-0.011526793
118	0x3e02a0c7	0.12756644
119	0x3d3bc05d	0.04583775
120	0x3e7c2966	0.24625167
121	0xbdf310a4	-0.11868408
122	0xbd31536d	-0.04329245
123	0xbd1a4455	-0.037662823
124	0x3e3b4ff3	0.18292217
125	0x3c0a1eaf	0.008430167
126	0x3d523ba7	0.05132642
127	0xbbcd47f8	-0.006264683
128	0x3c422a80	0.011850953
129	0x3ddf6c42	0.109093204
130	0x3d63a46a	0.05557672
131	0xbce0fc5d	-0.027464086
132	0x3de8106c	0.11331257
133	0x3d8c53f6	0.06851952
134	0x3d0ee0c1	0.03488231
135	0x3d8389fc	0.06422803
136	0xbc5e53db	-0.013569797
137	0x3d1e4ee0	0.03864944
138	0xbd604122	-0.054749615
139	0xbdddbfc8	-0.10827595
140	0xbd368101	-0.04455662
141	0xbd08c041	-0.033386473
142	0x3bce38b5	0.006293381
143	0x3d039364	0.032122985
144	0xbca37af5	-0.019956091
145	0x3cac2d77	0.021017773
146	0xbd341b50	-0.04397136
147	0xbd328d1a	-0.043591596
148	0xbd7eb55e	-0.062184684
149	0xbc8e794a	-0.01739182
150	0xbadf8e26	-0.0017055913
151	0xbdaf6d4a	-0.08565767
152	0xbd49d878	-0.049278706
153	0x3e235e93	0.15954046
154	0x3cb1322b	0.021630367
155	0xbd1c5577	-0.038167443
156	0x3d1156fd	0.03548335
157	0x3da933d3	0.08261838
158	0x3d2dda1b	0.04244433
159	0xbd154161	-0.036439303
160	0xbcf967d6	-0.03044502
161	0x3ca9e595	0.020739356
162	0xbd728c58	-0.059215873
163	0x3e20e9cd	0.15714188
164	0xbdaf307d	-0.0855417
165	0xbce14e6c	-0.027503215
166	0x3d06056c	0.032720014
167	0xbd884f20	-0.06655717
168	0xbd838201	-0.06421281
169	0x3e6c351e	0.23067138
170	0x3c0f8d9b	0.008761789
171	0x3e36acb2	0.17839316
172	0x3d86d9e7	0.0658453
173	0xbd2aee84	-0.041731372
174	0xbd80cf81	-0.06289578
175	0xbd876ad0	-0.0661217
176	0x3dcb42a7	0.09924822
177	0x3ec12bd7	0.3772876
178	0x3ea39154	0.31946814
179	0xbd47df2b	-0.048796814
180	0xbd631f68	-0.055449873
181	0x3dff5bff	0.12468719
182	0x3e3edc95	0.18638833
183	0x3cc05609	0.023478525
184	0x3d36d210	0.044633925
185	0x3e597f4d	0.21239968
186	0xbd8f0b45	-0.06984571
187	0x3e4d5a3f	0.20053957
188	0x3d9300b2	0.07177867
189	0x3e5a401e	0.21313521
190	0xbdb7c8c7	-0.08973842
191	0xbd33d478	-0.043903798
192	0x3ce258b0	0.02763018
193	0x3dab93a3	0.08377769
194	0x3b113058	0.002215406
195	0xbd5a2a78	-0.053263158
196	0x3da6b393	0.0813972
197	0x3d99cf48	0.07510239
198	0x3bbd8728	0.005783934
199	0x3cb57879	0.022152172
200	0x3db3e0a5	0.08783082
201	0x3d4ed4ec	0.050496027
202	0x3c810dfd	0.01575374
203	0x3d028b97	0.031871404
204	0x3dd463ce	0.10370599
205	0x3e197eb5	0.14989741
206	0x3c4ec7d6	0.012620887
207	0x3e9302a3	0.2871295
208	0xbbf2a36b	-0.007404735
209	0xbd4ed486	-0.050495647
210	0xbd11f0bc	-0.035629973
211	0x3e18fd35	0.14940341
212	0x3d9318d5	0.07182471
213	0x3e3fea1c	0.1874165
214	0x3eed2749	0.46319035
215	0xbe38252c	-0.1798293
216	0x3e1b7715	0.15182145
217	0x3dcd7d39	0.1003365
218	0x3de2e5b8	0.110789716
219	0x3cf5bf1a	0.02999835
220	0x3dd9888e	0.10621749
221	0xbd3014e7	-0.042988684
222	0xbc1d03ed	-0.0095834555
223	0x3da1dec2	0.07903816
224	0x3e24810f	0.16064857
225	0x3e4f8f9d	0.20269628
226	0xbd59612a	-0.05307118
227	0x3d95b01f	0.07308983
228	0xbcc9fef9	-0.024657713
229	0x3e0d7736	0.13815007
230	0x3dbe4d39	0.09292073
231	0xbd8b7413	-0.06809249
232	0x3b7f8568	0.0038989428
233	0xbca99f73	-0.020705914
234	0xbd897ee3	-0.06713655
235	0x3da9d65b	0.08292838
236	0xbd942317	-0.07233255
237	0x3b62eb22	0.0034625013
238	0xbd74f63c	-0.05980514
239	0x3c8e222e	0.017350283
240	0x3d09f221	0.033678178
241	0xbe34964a	-0.17635456
242	0xbd9c1b6f	-0.0762242
243	0x3cb09a48	0.021557942
244	0x3e8cbb21	0.27486518
245	0x3c8e4cf9	0.017370688
246	0xbda24d3e	-0.07924889
247	0x3e5bc0fb	0.21460335
248	0x3c9e1bf4	0.019300438
249	0x3e9b4f42	0.30333906
250	0x3d5fdc9c	0.05465375
251	0x3d4ca5c8	0.04996279
252	0xbd3d70b6	-0.046250068
253	0xbdd94348	-0.10608536
254	0x3e066c59	0.13127269
255	0xbc966cf0	-0.018362492

fc3.bias f4 [2]
0	0xbd9f93e0	-0.07791877
1	0xbc27029d	-0.010193494
