checkpoint_agent_0_actor.pth (torch_old, 524675 bytes, 6 tensors)

fc1.weight f4 [400, 24]
0	0xbd0993cd	-0.03358822
1	0xbd238db7	-0.03993007
2	0x3d21f9b4	0.039544776
3	0x3db67b9b	0.089102946
4	0xbdb06b41	-0.08614207
5	0xbcd3eb5d	-0.025869066
6	0x3d6350c6	0.055496953
7	0x3d0c318a	0.03422693
8	0xbd06bea5	-0.032896657
9	0xbd72b0b3	-0.059250545
10	0xbc18efea	-0.009334544
11	0x3dcc5b76	0.09978382
12	0xbd0ca9ac	-0.0343415
13	0xbda28406	-0.07935338
14	0xbd356473	-0.04428525
15	0x3d9fea4d	0.07808361
16	0xbdd18978	-0.10231298
17	0x3b27d59d	0.0025609501
18	0x3b8de82b	0.004330655
19	0x3e153794	0.14571983
20	0xbd40c2fc	-0.04706095
21	0xbd911918	-0.070848644
22	0x3d67cb92	0.056590624
23	0x3df7201f	0.120666735
24	0x39f1d928	0.00046128896
25	0xbe208108	-0.15674222
26	0x3d0253c1	0.031818155
27	0xbd39c47d	-0.0453534
28	0xbc71d67f	-0.0147606125
29	0xbc81e387	-0.015855564
30	0x3d5761dd	0.052583564
31	0xbd3593c0	-0.04433036
32	0xbd27438c	-0.040835902
33	0xbe4fa61c	-0.2027821
34	0xbd321b00	-0.04348278
35	0xbda33bb5	-0.079703726
36	0x3d4fd3f2	0.050739236
37	0x3d9a39cb	0.075305544
38	0xbc1ef271	-0.009701357
39	0xbdde2b75	-0.108481325
40	0xbccdeee3	-0.025138324
41	0xbdb6c4e5	-0.089242734
42	0x3d36da37	0.0446417
43	0x3d124a28	0.035715252
44	0x3dc55cbb	0.096368276
45	0x3cd95400	0.026529312
46	0x3d85475b	0.065077506
47	0x3cf76afd	0.030202383
48	0xbc80fc7c	-0.015745394
49	0xbe2215c9	-0.15828623
50	0xbaf8773a	-0.0018956431
51	0x3d8ac1ad	0.06775222
52	0x3c8f3dc2	0.017485503
53	0x3d052d59	0.03251395
54	0xbd3588c1	-0.04431987
55	0x3d955757	0.072920494
56	0xbc9a8961	-0.018864335
57	0xbdae5c2c	-0.08513674
58	0x3d8e1329	0.06937248
59	0x3e128d38	0.14311683
60	0x3b46babe	0.003032371
61	0x3ad5a0d0	0.0016298536
62	0x3da7272a	0.08161767
63	0x3e016445	0.12635906
64	0xbd3ccb74	-0.046092466
65	0xbd17ec3d	-0.03709053
66	0x3c7d13c7	0.01544661
67	0x3e53c579	0.20680799
68	0xbd7ad9bb	-0.0612428
69	0xbd25fcd0	-0.040524304
70	0x3c37f75d	0.01122841
71	0x3e2130ce	0.15741274
72	0xbcdb5540	-0.026774049
73	0xbd28e79d	-0.04123651
74	0x3d8a344e	0.067482576
75	0x3cc2ada4	0.023764439
76	0xbdab89b9	-0.08375878
77	0x3db138c1	0.08653403
78	0x3d866601	0.065624245
79	0x3d8afeed	0.067869045
80	0x3c9db145	0.019249568
81	0xbc881332	-0.016610716
82	0xbcd571fa	-0.026055325
83	0xbdab5ef2	-0.08367719
84	0x3c8993d7	0.016794128
85	0x3dc956a8	0.098309815
86	0xbca12f86	-0.019675981
87	0xbcd4fdcb	-0.025999924
88	0xbc081f04	-0.008308176
89	0xbda21dca	-0.07915838
90	0xbba9b9c2	-0.0051796148
91	0xbd262e3e	-0.040571444
92	0x3df8a9f6	0.121417925
93	0x3e12d5e1	0.14339401
94	0x3d454ccb	0.04816894
95	0xbbfbe8a5	-0.0076876455
96	0xbccf9f27	-0.025344444
97	0x3e26d771	0.16293122
98	0xbc4e2df0	-0.012584195
99	0x3d419e36	0.047270022
100	0x3d3620ed	0.044464994
101	0x3da48221	0.080326326
102	0xbc03f0aa	-0.008052984
103	0x3d5c1fa2	0.053741105
104	0x3d0b1632	0.033956714
105	0x3e0921d2	0.13391808
106	0x3c983a53	0.018582499
107	0x3df24d3b	0.11831137
108	0x3d6d6a8a	0.05796293
109	0xbcbc6ed0	-0.023002058
110	0x3d028933	0.031869125
111	0x3dfbc5b6	0.1229357
112	0xbd075096	-0.033035837
113	0x3c8a2731	0.016864391
114	0x3cd63729	0.02614935
115	0x3c0ca05c	0.0085831545
116	0xbc90b7d8	-0.017665789
117	0x3d03e93f	0.032204863
118	0x3d09d0eb	0.033646505
119	0x3d859fa4	0.0652459
120	0xbdd7f3a1	-0.105445154
121	0x3eb2482e	0.34820694
122	0x3c242ed0	0.010020927
123	0xbd120ce2	-0.035656817
124	0xbcb20d8e	-0.021734979
125	0xbcfdaf1c	-0.030967288
126	0xbc160cfe	-0.009158371
127	0xbdaa7d3f	-0.0832467
128	0xbdaa9489	-0.08329112
129	0x3ea01633	0.31266937
130	0xbcfc8d08	-0.030828968
131	0x3db57e35	0.08861963
132	0x3cc87d39	0.024473773
133	0xbe3958d5	-0.18100293
134	0x3c3260bd	0.010887322
135	0x3de1b3d2	0.11020626
136	0xbdeb5866	-0.1149147
137	0x3eb2915d	0.34876528
138	0xbc83c77c	-0.016086332
139	0x3dcc516e	0.09976469
140	0x3cf127ab	0.02943786
141	0xbe6df8a4	-0.2323938
142	0xbc9ffaf4	-0.019528843
143	0x3d7a645e	0.061130874
144	0x3d00178b	0.031272452
145	0x3e1a52bd	0.15070625
146	0xbcab377c	-0.02090048
147	0xbd44ab73	-0.04801507
148	0x3db81315	0.089880146
149	0xbea7fc92	-0.32809883
150	0x3d84f6f5	0.06492416
151	0xbb6cbee9	-0.0036124534
152	0x3c553e44	0.013015334
153	0x3d928c45	0.071556605
154	0x3d6ebcc5	0.058285493
155	0x3cdb2290	0.02674988
156	0x3d854957	0.06508129
157	0xbe4a2b93	-0.19743185
158	0x3d6fd7cb	0.058555406
159	0x3bb135fb	0.0054080463
160	0x3c9ce00e	0.019149806
161	0x3d878d61	0.06618763
162	0x3d1f2451	0.038852993
163	0x3d9c0fbe	0.0762019
164	0xbd08f25c	-0.033434257
165	0xbd5d7539	-0.05406687
166	0x3cfdeb3b	0.030995956
167	0x3ddda0d6	0.10821693
168	0x3de9e154	0.11419931
169	0x3ec51d2e	0.38498825
170	0xbbda89b0	-0.0066692457
171	0x3e04dbd4	0.12974483
172	0xbe0a16cd	-0.1348526
173	0xbe0b5df9	-0.13610066
174	0x3c45b883	0.012067917
175	0x3d95efbd	0.07321117
176	0x3d6bde5c	0.057585105
177	0x3e9e871a	0.3096245
178	0xbcca04f0	-0.024660558
179	0xbc5ee105	-0.0136034535
180	0xbdd2b360	-0.10288119
181	0xbe849e2c	-0.25901926
182	0xbcb6d51f	-0.022318421
183	0xbc62fd24	-0.013854299
184	0xbc3e78f0	-0.011625513
185	0x3ecb943c	0.3976153
186	0xbbc15b9f	-0.0059008147
187	0xbd669e72	-0.05630345
188	0xbd90bfca	-0.07067831
189	0xbe742559	-0.23842372
190	0xbc51e269	-0.012810328
191	0xbdd58e02	-0.104274765
192	0x3dad17a3	0.08451774
193	0xbce59d73	-0.02802918
194	0x3c33efaf	0.010982438
195	0xbd4a1187	-0.04933312
196	0x3dec898b	0.11549672
197	0x3dd683be	0.104743466
198	0x3d510e0d	0.05103879
199	0x3c6d5780	0.014486194
200	0x3d7be74a	0.06149987
201	0x3cebe574	0.028795935
202	0x3cb33681	0.021876575
203	0xbd4ad42c	-0.04951875
204	0x3d2632e0	0.040575862
205	0x3e4e909f	0.20172356
206	0x3d684e81	0.056715492
207	0xbd826d0f	-0.063684575
208	0x3c2ca770	0.010537967
209	0x3d7ec967	0.06220379
210	0xbdd0b768	-0.10191232
211	0x3bf491f8	0.00746369
212	0x3cc08ffc	0.023506157
213	0x3e1862ee	0.14881489
214	0xbd7bc433	-0.061466407
215	0x3d45d1f1	0.04829592
216	0x3ce0a5e3	0.027422851
217	0x3d1c6ab3	0.038187694
218	0xbd8c8004	-0.068603545
219	0x3c40b01f	0.011760741
220	0x3ce583d1	0.028016957
221	0x3d19ec60	0.03757894
222	0xbdaf28c5	-0.08552698
223	0xbd4f463e	-0.050604098
224	0xbd919288	-0.07108027
225	0x3cd219a4	0.025646992
226	0xbd71cf5c	-0.059035644
227	0x3df2042d	0.11817203
228	0x3c762d6d	0.015025479
229	0x3dbb9472	0.09159173
230	0xbb85b8b6	-0.004080857
231	0x3dae82b6	0.08521025
232	0x3d21fb73	0.03954644
233	0x3d2f8e6a	0.042860426
234	0x3c9e367c	0.01931309
235	0xbd1e7684	-0.038687244
236	0x3c780a73	0.01513921
237	0x3dbdc577	0.09266179
238	0xbd1cc2d9	-0.03827176
239	0xbd0fc88e	-0.035103373
240	0x3c993451	0.018701704
241	0xbe0780c0	-0.13232708
242	0xbd927101	-0.0715046
243	0x3d7470d8	0.05967793
244	0xbc78d01a	-0.015186334
245	0xbdfd065b	-0.12354728
246	0xbd2d5c29	-0.04232422
247	0x3dccc291	0.09998048
248	0x3b4955f1	0.003072139
249	0xbe1f0df1	-0.15532662
250	0xbdc959a1	-0.098315485
251	0x3cdbc97b	0.026829472
252	0xbcc057ac	-0.023479305
253	0xbe0aa0e0	-0.13537931
254	0xbdb67a12	-0.08910002
255	0x3c8ad9b2	0.016949508

fc1.bias f4 [400]
0	0x3d91ca38	0.07118648
1	0xbe578e90	-0.21050477
2	0xbde86610	-0.11347592
3	0x3e1d96be	0.15389535
4	0x3ce7391a	0.02822547
5	0x3cc67565	0.0242259
6	0xbd1e98c9	-0.038719926
7	0x3e637255	0.22211583
8	0xbe5bd4d7	-0.2146791
9	0xbd37d81f	-0.044883844
10	0x3e4560cb	0.19275205
11	0xbd836412	-0.06415571
12	0x3e01cf34	0.12676698
13	0xbcff2869	-0.031147199
14	0x3def12ec	0.11673531
15	0xbdfd6c37	-0.12374156
16	0xbe5d7d44	-0.21629816
17	0x3d74947b	0.059711915
18	0xbda1d6a9	-0.07902271
19	0x3e068242	0.13135627
20	0xbe008e69	-0.12554325
21	0x3df1d376	0.11807911
22	0xbe2ce68c	-0.16884822
23	0xbe02e467	-0.12782441
24	0x3e445fee	0.1917722
25	0xbe3f6ab5	-0.18693049
26	0x3e175cb4	0.14781457
27	0x3d8cf951	0.06883491
28	0x3db2feb4	0.08739987
29	0xbe121a0f	-0.14267753
30	0x3e29612a	0.16540971
31	0xbde85f02	-0.11346246
32	0xbdc79c4a	-0.09746607
33	0xbe761c49	-0.24034227
34	0xbdd81bb3	-0.10552158
35	0xbd8e96cd	-0.06962357
36	0xbe183bf1	-0.14866616
37	0xbe2066c8	-0.15664208
38	0xbe34c301	-0.17652513
39	0xbcb79e72	-0.02241442
40	0xbdaf5e7b	-0.085629426
41	0x3dc774c8	0.09739071
42	0x3d2166af	0.039404567
43	0xbe41f5e0	-0.1894145
44	0xbe279326	-0.16364726
45	0x3d66960d	0.056295443
46	0x3e0e7876	0.1391314
47	0x3de957e4	0.11393717
48	0xbde139f6	-0.10997383
49	0xbc5b6b9e	-0.013392357
50	0x3de46f1a	0.111540034
51	0xbd4b2008	-0.049591094
52	0x3e2b2581	0.16713525
53	0x3e178681	0.14797403
54	0xbc8c7c27	-0.017149044
55	0x3df63a84	0.1202288
56	0xbe5419b7	-0.20712934
57	0x3d3c80fb	0.046021443
58	0xbde72432	-0.112862006
59	0xbdbfc91b	-0.0936453
60	0x3e49bd00	0.19701004
61	0x3d4d30cb	0.05009536
62	0xbd792e82	-0.06083537
63	0xbca42228	-0.020035818
64	0x3caa6809	0.020801561
65	0xbc7e263b	-0.015512045
66	0xbc7325e0	-0.014840573
67	0x3d2dc002	0.04241944
68	0xbdf15fb3	-0.11785831
69	0xbd031e13	-0.032011103
70	0xbd9dc06f	-0.077027194
71	0x3dc118fd	0.09428594
72	0xbd844dca	-0.064601496
73	0xbe4bb2ca	-0.19892421
74	0xbd94c08e	-0.072632894
75	0x3d7525b9	0.05985043
76	0xbe219173	-0.1577814
77	0x3e038e8f	0.1284735
78	0xbdec75af	-0.11545884
79	0x3d5fd022	0.05464185
80	0xbcc90ed7	-0.024543209
81	0x3d1dd69e	0.038534753
82	0xbc469c59	-0.012122237
83	0xbe7c3ee4	-0.24633366
84	0xbe18f0bb	-0.14935581
85	0x3da09320	0.07840562
86	0x3e30a4b5	0.17250331
87	0xbe6450f8	-0.22296512
88	0xbd512dd0	-0.05106908
89	0xbd0f3b29	-0.03496853
90	0xbe0881bf	-0.13330744
91	0xbdca3d12	-0.098749295
92	0xbd6e15b4	-0.058126166
93	0xbe163bc1	-0.14671232
94	0xbda5cd77	-0.0809583
95	0xbe17a3d0	-0.14808583
96	0x3e6cf706	0.23141107
97	0xbe3a6112	-0.18201092
98	0x3e0ce956	0.13760886
99	0x3dea7468	0.11447984
100	0x3cfb5650	0.030680805
101	0x3dfb4e8b	0.1227084
102	0x3e138e8c	0.14409846
103	0x3cce833b	0.02520906
104	0x3de34892	0.11097826
105	0xbd7470b8	-0.05967781
106	0xbcfa98ef	-0.030590503
107	0x3e555cb0	0.20836139
108	0xbda5a78d	-0.080885984
109	0xbe571d07	-0.21007167
110	0x3d9510a1	0.07278562
111	0x3d431cdc	0.047634944
112	0xba009380	-0.0004904792
113	0x3de1620d	0.1100503
114	0xbdf10f63	-0.11770513
115	0x3e3a380e	0.18185446
116	0x3e24f311	0.16108347
117	0x3dac7c83	0.08422186
118	0xbdd64cfb	-0.104639016
119	0xbd6a151f	-0.05714905
120	0x3e022e4e	0.12712976
121	0xbdff720c	-0.124729246
122	0xbd2a23a7	-0.041537907
123	0x3dba0d5c	0.09084579
124	0x3e651b2b	0.22373645
125	0x3d383b25	0.04497828
126	0xbe1acd2c	-0.1511733
127	0x3d949c6b	0.07256397
128	0xbe051ef9	-0.13000096
129	0xbdb3c4dc	-0.08777782
130	0x3e5004a2	0.20314267
131	0x3e33eae5	0.17570074
132	0x3d6cdec3	0.05782963
133	0x3dd13c68	0.102166
134	0xbdecdef1	-0.1156596
135	0x3c847602	0.016169552
136	0xbe1b8694	-0.15188056
137	0x3d810f7b	0.06301781
138	0xbd5464f7	-0.0518541
139	0x3c5c57d6	0.013448676
140	0x3db5324a	0.088474825
141	0x3d4a974d	0.049460698
142	0xbdb2887b	-0.08717438
143	0x3e0427a6	0.1290575
144	0x3c9b4703	0.01895476
145	0xbda480de	-0.08032392
146	0x3e12123c	0.14264768
147	0xbdf07cda	-0.117425635
148	0x3c43d3b5	0.01195233
149	0xbdfef1ec	-0.12448487
150	0xbc251b6f	-0.010077341
151	0x3dff8ab7	0.1247763
152	0xbdf5485d	-0.11976693
153	0xbe1b9bf7	-0.15196215
154	0xbb0a8e3a	-0.0021141903
155	0x3cb93b73	0.022611355
156	0x3e8c7a3e	0.27437013
157	0x3e0ed1bd	0.13947196
158	0xbe1448c8	-0.14480889
159	0x3d8a74df	0.06760573
160	0x3d8aa23b	0.06769224
161	0xbe2c081a	-0.16799966
162	0x3e2f4ddd	0.17119546
163	0xbd7cec7b	-0.061748963
164	0x3d93815e	0.07202409
165	0xbe5ffe9c	-0.2187447
166	0xbe45df0e	-0.1932337
167	0xbcda6d61	-0.026663484
168	0x3e6e7c0a	0.23289505
169	0xbdd661b0	-0.10467851
170	0xbe581818	-0.21102941
171	0xbca4df82	-0.020126108
172	0xbdc88371	-0.097906955
173	0x3e5b51ce	0.21417925
174	0xbd048d80	-0.032361507
175	0x3d64a557	0.055821743
176	0x3e3a02da	0.1816515
177	0x3cd4f72b	0.025996765
178	0xbd801ace	-0.062551126
179	0xbe20b736	-0.1569489
180	0xbe25875a	-0.16164914
181	0xbe81e05e	-0.2536649
182	0xbe0889eb	-0.13333862
183	0x3e2d3e6f	0.16918348
184	0x3e3fb676	0.18721947
185	0x3dcee617	0.1010248
186	0xbcaaf997	-0.020870967
187	0x3dc33356	0.09531276
188	0x3e1e4d24	0.15459114
189	0x3d2b4ca9	0.041821156
190	0x3df18058	0.11792058
191	0x3aa0b55b	0.0012261079
192	0x3e076704	0.13222891
193	0xbd28f264	-0.041246787
194	0xbdb7628a	-0.08954342
195	0xbd8f00fe	-0.06982611
196	0x3dcde869	0.10054094
197	0xbdd1f47d	-0.102517106
198	0x3da3c1da	0.079959586
199	0x3ceaa8f0	0.028645009
200	0xbe4f1843	-0.20224099
201	0x3cbf3de0	0.023344934
202	0x3d896544	0.06708768
203	0xbe883883	-0.26605615
204	0x3e48ab9b	0.19596712
205	0xbe8b08ac	-0.27155054
206	0x3dc54f38	0.096342504
207	0xbde47923	-0.111559175
208	0xbe6cf831	-0.23141553
209	0x3dbc0ebe	0.09182499
210	0x3e312a7d	0.17301364
211	0xbdd149c8	-0.10219151
212	0xbdb24c5d	-0.087059714
213	0xbd45c1f5	-0.048280675
214	0x3db6d655	0.08927599
215	0xbd9d1078	-0.07669157
216	0x3e0ee4fd	0.1395454
217	0xbe641905	-0.22275169
218	0xbdecedb5	-0.115687765
219	0x3dcf25dd	0.10114644
220	0x3d4168c6	0.04721906
221	0xbe313a8f	-0.17307495
222	0x3d9b7209	0.0759011
223	0x3d9e4fc7	0.0773006
224	0xbc930185	-0.01794506
225	0xbdafaec6	-0.08578257
226	0x3dd12459	0.10212011
227	0x3e005b4b	0.12534826
228	0xbd280ac6	-0.0410259
229	0xbe3df9fb	-0.18552391
230	0xbd2dffc9	-0.042480264
231	0x3dbcc5d7	0.092174225
232	0x3dcab015	0.09896866
233	0xbe343621	-0.17598774
234	0x3d45bcbf	0.048275705
235	0xbe75585c	-0.23959488
236	0x3b3fc58b	0.0029262032
237	0x3d18bb0b	0.037287753
238	0x3d1e6104	0.03866674
239	0x3d178b93	0.036998343
240	0x3d9558c9	0.07292325
241	0xbae2dfc1	-0.0017309116
242	0x3d4dd4d8	0.05025181
243	0xbe58a65e	-0.21157214
244	0x3d4425a9	0.047887478
245	0x3e37b35e	0.17939517
246	0xbe5bdaab	-0.21470134
247	0x3ca04834	0.01956568
248	0x3cb5aec7	0.022178067
249	0x3e767d8a	0.24071327
250	0x3e13f7bc	0.14449972
251	0xbe502258	-0.20325601
252	0x3df28b03	0.11842921
253	0x3ca21070	0.019783229
254	0xbe6cdfb2	-0.23132208
255	0x3e14aa68	0.1451813

fc2.weight f4 [300, 400]
0	0x3e0f73c4	0.14009005
1	0xbc926a28	-0.017872885
2	0xbcdd39ad	-0.027005041
3	0xbb97d599	-0.004633617
4	0xbd274662	-0.040838607
5	0xbd070b95	-0.03297003
6	0x3de16037	0.1100468
7	0x3ed2026f	0.41017482
8	0x3df55f37	0.119810514
9	0xbdddd0d4	-0.108308464
10	0xbdadbd85	-0.084834136
11	0xbc9abe70	-0.018889636
12	0x3e090d10	0.13383889
13	0xbde18339	-0.11011357
14	0xbd33f74a	-0.043937005
15	0x3def5a05	0.11687092
16	0x3cbe29df	0.023213325
17	0x3c9f94ea	0.019480187
18	0xbcd23227	-0.02565868
19	0xbdd8e97a	-0.10591407
20	0xbdcf4f2f	-0.10122525
21	0xbd7f2f4c	-0.062300965
22	0x3b9e1937	0.004824783
23	0x3c73bbe9	0.014876344
24	0x3d01e233	0.03170986
25	0xbce8c0ac	-0.028412186
26	0x3db33645	0.087505855
27	0x3d85d686	0.06535058
28	0x3e806d59	0.25083426
29	0x3d8e3dd4	0.069453865
30	0xbdd2ef18	-0.1029951
31	0xbc58958d	-0.013219249
32	0x3dd30f16	0.10305612
33	0xbd64ecbb	-0.055889826
34	0xbd0fddf1	-0.03512377
35	0xbd4b7512	-0.049672194
36	0x3d67b181	0.056565765
37	0x3cdaf0b4	0.026726104
38	0x3d2b6511	0.04184443
39	0xbc9de7cf	-0.019275574
40	0xbdab170a	-0.08354004
41	0xbd36324a	-0.044481553
42	0xbd247d97	-0.040158834
43	0x3ddbb871	0.10728539
44	0xbd3325e0	-0.043737292
45	0x3dc16dc2	0.09444763
46	0xbc90045d	-0.017580206
47	0x3cb9f240	0.022698522
48	0xbd2a2739	-0.041541312
49	0xbbc9abfb	-0.006154535
50	0xbcf5a4dd	-0.02998584
51	0x3d6f3374	0.05839868
52	0xbda74faf	-0.08169495
53	0x3d99d28a	0.0751086
54	0x3d44a6d9	0.04801068
55	0x3c1b3a16	0.009474298
56	0xbcb893ab	-0.022531351
57	0xbd25930f	-0.04042345
58	0x3d113b51	0.03545696
59	0x3cceb830	0.025234312
60	0xbd621e1c	-0.055204496
61	0x3e3442be	0.17603585
62	0xbd2a5991	-0.041589323
63	0x3d0f2584	0.034947887
64	0xbbab4ece	-0.0052279
65	0xbcb37cdf	-0.02191013
66	0x3d53ae2c	0.051679775
67	0x3e1f209a	0.1553978
68	0xbd753e20	-0.0598737
69	0xbd5d94c3	-0.05409695
70	0x3d97f558	0.074198425
71	0x3dc25608	0.094890654
72	0xbd0e2d10	-0.034710944
73	0xbe0b64bb	-0.13612644
74	0xbc9ffab9	-0.019528734
75	0x3cf2cfcd	0.029640103
76	0xbde59801	-0.11210633
77	0x3d0dadeb	0.03458969
78	0x3e61bf50	0.22045636
79	0x3df5d305	0.120031394
80	0xbdf37131	-0.11886824
81	0xbe7e3597	-0.2482513
82	0x3c8e233d	0.017350787
83	0x3dcc70c0	0.09982443
84	0x3e062790	0.1310103
85	0xbce7b0ca	-0.028282542
86	0x3918b45c	0.00014563039
87	0x3ccdb402	0.025110248
88	0x3dbacc5d	0.091210105
89	0x3d47b525	0.048756737
90	0xbdbca300	-0.09210777
91	0x3d18c2a2	0.03729499
92	0xbcbc6437	-0.022997005
93	0x3d8aff8c	0.06787023
94	0x3cd20dde	0.025641378
95	0xbbc74761	-0.006081507
96	0x3d45ec65	0.048321147
97	0xbdbfe134	-0.09369126
98	0x3d000a76	0.031259976
99	0xbdc9ebee	-0.09859453
100	0x3cff74f8	0.031183705
101	0x3cea704c	0.028618
102	0xbd31bb3b	-0.043391448
103	0xbcc7041c	-0.024293952
104	0xbd78c609	-0.060735736
105	0xbcd209fe	-0.02563953
106	0xbd9b2f86	-0.07577424
107	0x3c4a3ccc	0.012343597
108	0xbe1c1400	-0.15242004
109	0x3dfdfdf1	0.12401951
110	0xbc1a4b9c	-0.009417441
111	0xbd71fc7a	-0.05907867
112	0xbcc2898a	-0.023747224
113	0xbd87d157	-0.06631725
114	0x3db09acf	0.086232774
115	0x3d51399d	0.051080335
116	0xbddb3933	-0.10704269
117	0x3d1d446a	0.038395323
118	0x3d80a84a	0.062820986
119	0x390faccc	0.00013701915
120	0xbe3373fb	-0.17524712
121	0xbd5d3cd6	-0.054013096
122	0x3d32dab3	0.0436656
123	0x3bb19c49	0.005420242
124	0x3c9ff02a	0.019523699
125	0xbe26ce37	-0.16289602
126	0x3d90d66b	0.07072147
127	0xbca0aa2e	-0.019612398
128	0xbd1a1da6	-0.03762593
129	0xbdee0fae	-0.116240844
130	0x3cb28006	0.021789562
131	0x3caec2a4	0.021333046
132	0xbce61e50	-0.028090626
133	0x3c1791a6	0.009251034
134	0xbc9fdabe	-0.019513484
135	0x3ac8afb9	0.0015311158
136	0x3d829082	0.06375219
137	0xbc2155f8	-0.009847157
138	0x3c8f02a5	0.017457316
139	0xbc7713cb	-0.015080403
140	0xbd561773	-0.052268457
141	0xbd759117	-0.05995282
142	0x3d4c412d	0.049866844
143	0xbc2c83b3	-0.010529446
144	0x3d131a36	0.03591367
145	0xbc074f45	-0.008258645
146	0xbc17cc0a	-0.009264955
147	0xbc8dde80	-0.01731801
148	0xbd7cd78b	-0.061728995
149	0x3db34960	0.087542295
150	0x3d3dd5b5	0.046346385
151	0xbd4b8934	-0.049691394
152	0x3de62dd6	0.11239211
153	0xbdb39c69	-0.08770067
154	0xbd03e770	-0.032203138
155	0x3df05d87	0.11736589
156	0x3d8f4766	0.0699604
157	0xbcab1a5b	-0.02088659
158	0xbb904e66	-0.004403877
159	0x3b88db26	0.004176515
160	0x3c76a9d2	0.015055137
161	0x3c44bcf3	0.01200794
162	0x3c0cc370	0.008591518
163	0xbd1f5136	-0.03889581
164	0x3a54c3fd	0.0008116363
165	0x3c9d44f4	0.019197918
166	0x3d6f57b9	0.05843327
167	0xbd0b7ada	-0.034052707
168	0x3dde246c	0.10846791
169	0xbb820d1a	-0.003968847
170	0x3d985323	0.07437732
171	0x3ca7b09e	0.02046996
172	0xbd842602	-0.06452562
173	0x3cd36597	0.025805278
174	0x3bc35cdf	0.005961999
175	0x3d771479	0.06032226
176	0xbce5d5d2	-0.028056059
177	0xbd71c7ae	-0.05902832
178	0x3e05cdc2	0.13066772
179	0x3cda48f0	0.026646107
180	0xbd98a839	-0.07453961
181	0xbdb56cfe	-0.08858679
182	0x3cfc0023	0.030761784
183	0xbc7603e3	-0.015015575
184	0xbd342c57	-0.0439876
185	0x3dbc505c	0.09195015
186	0xbd87ae65	-0.0662506
187	0x3c0eb1fb	0.008709426
188	0x3b8ba2e2	0.0042613605
189	0x3d044786	0.032294773
190	0xbc8b9834	-0.01704035
191	0x3d8fd9cd	0.07023964
192	0xbb52010c	-0.003204408
193	0xbc8cb268	-0.017174914
194	0x3cbcf633	0.023066616
195	0x3df7239a	0.12067337
196	0x3d858417	0.06519335
197	0xbd2cc14f	-0.04217654
198	0x3d03faca	0.032221593
199	0xbd7481b2	-0.059694
200	0xbdb29333	-0.08719482
201	0x3cd52899	0.026020335
202	0xbd83f307	-0.06442838
203	0xbcc948f8	-0.024570927
204	0x3dac5b44	0.08415845
205	0x3e091604	0.13387305
206	0xbd9c36a1	-0.07627607
207	0xbd9d6547	-0.07685333
208	0x3bd27fcf	0.0064239274
209	0xbd3a67d2	-0.045509167
210	0xbc1c5b7e	-0.009543298
211	0x3d386861	0.04502142
212	0xbc936fbf	-0.01799762
213	0x3c48b6d0	0.012250617
214	0x3e02e9f8	0.12784564
215	0x3c2386ff	0.009980916
216	0x3d0e510f	0.034745272
217	0x3b9f7754	0.00486652
218	0xbd1e602f	-0.038665947
219	0x3d6c6e16	0.057722174
220	0xbd2daae6	-0.04239931
221	0xbbc22180	-0.0059244037
222	0x3d456443	0.04819132
223	0x3d2489b4	0.040170386
224	0x3dac73d9	0.08420534
225	0xbc945669	-0.01810761
226	0x3cef6dc3	0.029227143
227	0xbda6423d	-0.08118103
228	0xbdd53ecc	-0.10412368
229	0xbdbb5b43	-0.09148266
230	0xbd13f4fd	-0.03612231
231	0x3d9efa9a	0.07762642
232	0xbd2d6225	-0.042329926
233	0x39e0c365	0.0004287019
234	0xbe1dd241	-0.15412237
235	0x3b3fefab	0.002928714
236	0x3c95ea6d	0.01830026
237	0xbd399579	-0.045308564
238	0xbc20b1c9	-0.009808012
239	0x3dcc6268	0.09979707
240	0xbd840ed8	-0.06448144
241	0xbe3b0f7d	-0.18267627
242	0xbcc155e2	-0.023600522
243	0xbc373fec	-0.011184674
244	0x3dac68c2	0.084184185
245	0x3e372e5a	0.17888775
246	0xba25b8f9	-0.00063218136
247	0x3daf627b	0.085637055
248	0x3d537fe0	0.051635623
249	0x3df74f7f	0.120757096
250	0xbd7b1c19	-0.061306093
251	0x3c2982ea	0.010346154
252	0xbdb5dbeb	-0.08879837
253	0xbdd9cd61	-0.10634876
254	0xbd94d077	-0.07266324
255	0xbc8e0c20	-0.017339766

fc2.bias f4 [300]
0	0x3b44d45c	0.0030033803
1	0xbd3bbafd	-0.045832623
2	0xbbc76249	-0.0060847146
3	0x3c7882da	0.015167916
4	0x3d1f237b	0.038852196
5	0xbd9d4cf7	-0.076806955
6	0x3bab51c7	0.0052282545
7	0x3d5991da	0.05311761
8	0x3d5fbefa	0.05462549
9	0x3ca1ce16	0.01975159
10	0x3ca001d8	0.01953213
11	0x3d221ace	0.039576344
12	0xbca90576	-0.020632487
13	0x3da94928	0.082659066
14	0x3d169877	0.036766496
15	0x3d777c88	0.060421497
16	0x3d5901e1	0.052980307
17	0x3d523bd5	0.05132659
18	0xbd6fe443	-0.058567297
19	0x3d68f0b7	0.05687019
20	0x3d07419b	0.03302155
21	0xbbb0c214	-0.0053942297
22	0x3dac8366	0.084235
23	0x3d007cf1	0.031369153
24	0x3d947d3f	0.07250451
25	0x3d5d5888	0.054039508
26	0xbb3ae040	-0.002851501
27	0xbd407564	-0.046986952
28	0x3d5d74fb	0.05406664
29	0x3ca7fdc9	0.020506756
30	0xbd2d6455	-0.042332012
31	0xbd9a6698	-0.075390995
32	0x3bc05c3f	0.0058703716
33	0x3d1d1173	0.03834672
34	0xbcde257a	-0.02711748
35	0xbbb1e0b1	-0.0054283966
36	0x3d0cd293	0.034380507
37	0x3d0cead2	0.03440363
38	0x3c84f251	0.016228827
39	0x3d74b93f	0.059746977
40	0xbc3d2f73	-0.011546957
41	0x3c360e36	0.011111787
42	0x3d87a3cc	0.06623039
43	0xbd3f959b	-0.046773534
44	0x3c794357	0.015213809
45	0x3d75baf6	0.059992753
46	0x3d9322e5	0.0718439
47	0xbcaeac49	-0.021322386
48	0x3d8cea49	0.06880624
49	0xbd763dd1	-0.060117546
50	0xbd85f9e7	-0.06541806
51	0x3d96bed6	0.07360618
52	0x3d5fb1a1	0.05461276
53	0x3ca6fced	0.020384276
54	0xbcec717e	-0.028862711
55	0x3ce3ec45	0.027822623
56	0x3cb7b959	0.022427248
57	0xbb9629c6	-0.0045826165
58	0xbd23971a	-0.039939024
59	0x3d24c93b	0.04023097
60	0x3c8ddc76	0.017317038
61	0xbb8acb08	-0.004235629
62	0x3d306cac	0.043072388
63	0x3a73b43b	0.0009296571
64	0x3cd68dff	0.026190756
65	0xbcd82398	-0.02638416
66	0xbbff70c3	-0.0077954247
67	0x3ab60558	0.0013887091
68	0x3a2e5045	0.00066495343
69	0xbc24f389	-0.010067829
70	0xbd86590e	-0.065599546
71	0xbd3ab67d	-0.04558419
72	0xbc88aeb3	-0.016684866
73	0x3c0b3c63	0.008498284
74	0xbd104ab1	-0.03522748
75	0x3d6cdd83	0.057828438
76	0x3d079c47	0.033108022
77	0x3d047fa3	0.032348286
78	0x3d92dd33	0.07171097
79	0x3d14d89b	0.036339384
80	0xbd08552a	-0.033284344
81	0xbcf676f9	-0.030086027
82	0xbc8999c4	-0.016796954
83	0xbcf0c070	-0.029388636
84	0x3c044e2a	0.008075276
85	0x3d97811d	0.07397673
86	0xbd5b99dc	-0.05361353
87	0x3c62c506	0.013840919
88	0xbd0206d0	-0.03174478
89	0x3da83896	0.08213918
90	0xbd19f0e6	-0.037583254
91	0x3d02725e	0.03184735
92	0x3c9f3bb2	0.019437645
93	0x3d79485c	0.060860023
94	0xbcfdaf21	-0.030967297
95	0x3d3415ae	0.043965988
96	0xbc40af40	-0.011760533
97	0xbd4cbb43	-0.049983274
98	0x3d076fcf	0.033065613
99	0x3dd9be75	0.1063203
100	0x3d5152fa	0.051104523
101	0x3cafad31	0.021444889
102	0xbd7e11fd	-0.062028874
103	0x3d2ca3fa	0.042148568
104	0xbcd09e94	-0.025466241
105	0xbd7d16e7	-0.06178942
106	0xbbf4251d	-0.0074507133
107	0x3d5be2fc	0.053683266
108	0xbd67709c	-0.056503877
109	0xbca3dab7	-0.020001752
110	0x3d058cd6	0.032605015
111	0x3c972229	0.018448906
112	0xbd0dffef	-0.034667905
113	0xbbe5b086	-0.0070095686
114	0x3d10f5ff	0.03539085
115	0xbcd30cef	-0.025763003
116	0xbd87b3b5	-0.06626073
117	0xbcf15cf8	-0.029463276
118	0xbd843a1b	-0.06456395
119	0x3d6018bf	0.0547111
120	0x38fe7847	0.00012134067
121	0xbcf5c095	-0.029999057
122	0x3bfb5ddf	0.0076711024
123	0x3d822d90	0.063563466
124	0xbcbadef3	-0.022811389
125	0x3c2aa0d1	0.010414318
126	0xbcc2854f	-0.023745207
127	0x3d6e4a6f	0.058176454
128	0x3d1a65fe	0.037694924
129	0x3d0d6d04	0.034527794
130	0x3cdedc77	0.027204735
131	0xb8e3e036	-0.00010865966
132	0xbd046435	-0.032322127
133	0x3c6a0e37	0.014285616
134	0x3cd9a134	0.026566125
135	0x3d973efb	0.073850594
136	0x3c2ab646	0.010419434
137	0xbcce82dc	-0.025208883
138	0x3bcac454	0.006187955
139	0xbd5c07dd	-0.053718437
140	0xbd4f980a	-0.050682105
141	0xbdd3db9b	-0.10344621
142	0xbd991475	-0.07474605
143	0x3c4efe2e	0.012633843
144	0x3cc8cb6a	0.024511058
145	0x3d0e3291	0.034716193
146	0x3d55ed75	0.05222841
147	0x3c1ab39a	0.009442234
148	0xbcd24313	-0.02566675
149	0xbd0ae9cb	-0.03391437
150	0x3ce17cb7	0.027525289
151	0x3cbecbad	0.02329048
152	0xbd280b48	-0.041026384
153	0xbce73109	-0.028221624
154	0x3d105cc4	0.03524472
155	0xbcae5d2e	-0.021284666
156	0x3b74271b	0.0037254754
157	0x3c9c57f7	0.019084914
158	0xbd99a753	-0.07502618
159	0x3c5d49d9	0.013506376
160	0xbd0c18ee	-0.034203462
161	0x3c8a4db9	0.016882764
162	0x3bde19b4	0.0067779664
163	0xbce6277e	-0.028095003
164	0x3cd99080	0.02655816
165	0xbd1e90ec	-0.038712427
166	0xbd24eb01	-0.04026318
167	0x3be0ff33	0.0068663596
168	0x3d2a5dfa	0.04159353
169	0x3c2200b8	0.009887867
170	0x3b1e3b95	0.00241444
171	0xbd968767	-0.07350045
172	0x3d87c642	0.066296116
173	0x3b7e9b60	0.0038849935
174	0xbd39fa4c	-0.045404717
175	0x3bc6071a	0.006043327
176	0x3cf5ebaf	0.03001961
177	0xbbf40ede	-0.0074480614
178	0xbd82e664	-0.063916
179	0xbd93bf9b	-0.0721428
180	0xbc2e8d02	-0.010653736
181	0xbd3c6486	-0.045994304
182	0x3cc225bc	0.023699634
183	0x3d0ee968	0.034890562
184	0x3cf34ee5	0.029700706
185	0x3b977081	0.004621566
186	0xbc09fe98	-0.008422516
187	0xbc6a0de7	-0.014285541
188	0xbc8478f1	-0.01617095
189	0x3d04c3d9	0.032413337
190	0xbd2bdc6b	-0.041958254
191	0x3d34b018	0.04411325
192	0xbd09b780	-0.033622265
193	0x3bbe161a	0.0058009746
194	0x3cf5d1ec	0.030007325
195	0x3d87e38f	0.066352
196	0x3ceb5874	0.028728701
197	0xbc28b0fc	-0.010296103
198	0x3d877a8b	0.0661517
199	0x3d6ccf90	0.057815135
200	0xbc24be80	-0.010055184
201	0x3d040091	0.032227103
202	0xbc96d435	-0.018411735
203	0x3d4bf136	0.049790584
204	0x3d533e00	0.0515728
205	0xbbe586d1	-0.0070045968
206	0xbbdb55bd	-0.0066935704
207	0xbd09a105	-0.033600826
208	0xbd829767	-0.06376534
209	0xbd488768	-0.04895726
210	0xbc70a8f7	-0.014688722
211	0xbca54c96	-0.02017812
212	0xbbd5b9bb	-0.006522385
213	0x3d170148	0.036866456
214	0x3c6f848c	0.014619004
215	0xbd3c1c46	-0.0459254
216	0xbcf4022b	-0.02978619
217	0xbbdd747a	-0.00675827
218	0x3b6bb8f9	0.0035968407
219	0xbb8776bd	-0.0041340278
220	0x3cd8f6d6	0.026484888
221	0xbdf64934	-0.12025681
222	0x39e45164	0.0004354819
223	0x3d2b2389	0.041781936
224	0xbd65fbfb	-0.05614851
225	0xbd7dc056	-0.061951004
226	0x3c1c8d2e	0.009555144
227	0x3a89c190	0.0010509957
228	0x3d2ea3eb	0.042636793
229	0x3d8014e7	0.06253987
230	0x3c62feb8	0.013854675
231	0xbc9930ec	-0.018700086
232	0x3cd51ad0	0.026013762
233	0x3d154b23	0.03644861
234	0xbb8a1792	-0.0042142356
235	0x3d560577	0.052251305
236	0x3a87886b	0.0010340338
237	0x3daa8e8e	0.083279714
238	0x3d8cacaa	0.068688706
239	0x3ca151f6	0.019692402
240	0x3d9e7bc2	0.07738449
241	0xbd427eb4	-0.047484115
242	0xbccf44e9	-0.025301414
243	0xbc8478e5	-0.016170928
244	0x3d3af163	0.04564036
245	0x3cf4d621	0.02988726
246	0xbdb6ebbe	-0.08931683
247	0x3d284f11	0.04109103
248	0xbcd86a7e	-0.026417967
249	0x3c9dfdb2	0.01928601
250	0x3b9ab4db	0.0047212667
251	0xbd2b6fd6	-0.041854702
252	0xbd03e0dc	-0.032196864
253	0xbc3000dc	-0.010742392
254	0x3b81a961	0.003956959
255	0xbd2b2622	-0.041784413

fc3.weight f4 [2, 300]
0	0x3d73ff53	0.059569668
1	0xbd282fe9	-0.041061316
2	0xbdd459b9	-0.10368676
3	0x3d3bd4f0	0.04585737
4	0xba485082	-0.0007641391
5	0x3d2cf38c	0.042224452
6	0x3d194f11	0.03742892
7	0x3d01672b	0.03159253
8	0x3dd17274	0.10226908
9	0x3e252b23	0.16129737
10	0x3cfdaa29	0.030964928
11	0x3d3aa77d	0.045569886
12	0xbcc9d662	-0.024638359
13	0x3d0229e3	0.031778228
14	0x3cb716e1	0.022349777
15	0x3d3688f7	0.044564214
16	0xbd39cc69	-0.045360956
17	0xbd35c59e	-0.044377916
18	0xbd88a446	-0.06671958
19	0x3e6a7902	0.22897723
20	0x3d383d6c	0.04498045
21	0xbd640ace	-0.055674367
22	0x3cf67e5b	0.030089548
23	0x3cd0db96	0.025495332
24	0x3e2900ec	0.16504258
25	0x3ea5f959	0.324168
26	0x3cef3f1a	0.029204894
27	0xbdabcf81	-0.083891876
28	0x3dbc4fe0	0.091949224
29	0xbaeb318a	-0.0017943841
30	0xbd0edc60	-0.034878135
31	0xbd8a2d7d	-0.067469575
32	0xbca37c73	-0.019956803
33	0x3d203b08	0.039118797
34	0xbd1a4d33	-0.03767128
35	0x3e869d71	0.26291993
36	0x3b8579ee	0.004073373
37	0x3e381b21	0.17979099
38	0xbd4d5647	-0.05013111
39	0x3db4d923	0.08830478
40	0xbd892292	-0.06696047
41	0x3bb9089c	0.0056467783
42	0x3d382a3a	0.044962145
43	0xbd5e4d5a	-0.054272987
44	0xbd3a9702	-0.04555417
45	0x3d27eee4	0.04099931
46	0x3d34f58f	0.044179495
47	0xbd5be6f2	-0.053687043
48	0xbe53e3cd	-0.20692368
49	0xbdad89fc	-0.08473584
50	0xbd82304d	-0.06356869
51	0x3c4801b7	0.01220744
52	0x3d416fb9	0.047225688
53	0x3ce6bdd8	0.028166696
54	0x3e8a64bd	0.27029982
55	0x3c713834	0.0147228725
56	0x3e6f7a0c	0.23386401
57	0x3d273a0a	0.040826835
58	0xbc228bc6	-0.00992102
59	0x3d101f7e	0.035186283
60	0x3d8ea625	0.06965283
61	0xbe3bad09	-0.18327726
62	0x3c8f0aea	0.017461259
63	0xbcf3db73	-0.029767727
64	0x3c66436c	0.014054161
65	0xbd690d4e	-0.056897454
66	0x3ceb5a4e	0.028729584
67	0xbd052a5a	-0.032511093
68	0xbd5db7cd	-0.054130364
69	0xbe657753	-0.224088
70	0xbc21b1c0	-0.009869039
71	0xbde9f73a	-0.11424108
72	0x3bd2ec55	0.0064368644
73	0x3ccf6d0d	0.025320554
74	0xbcf95e4a	-0.030440468
75	0x3e347cdd	0.17625757
76	0x3e188642	0.14894965
77	0x3dde683b	0.10859724
78	0x3caea92b	0.0213209
79	0xbde06298	-0.10956305
80	0xbd4f0064	-0.050537482
81	0xbd342989	-0.043984924
82	0x3cc246bb	0.023715368
83	0xbdbe720e	-0.09299098
84	0x3e2e9801	0.17050172
85	0x3cd76291	0.026292117
86	0xbd9f7c65	-0.07787398
87	0xbd4f9c59	-0.050686214
88	0x3ebd144f	0.36929557
89	0x3d4fa5f9	0.050695393
90	0xbd63bb7a	-0.055598713
91	0xbab5de1f	-0.0013875401
92	0x3df07906	0.117418334
93	0x3da2700f	0.0793153
94	0xbd546bb7	-0.051860537
95	0xbd041e36	-0.032255374
96	0xbd594561	-0.05304468
97	0xbd47da2f	-0.04879206
98	0x3e2ba064	0.16760403
99	0x3dbe1727	0.0928176
100	0x3b3ef1e0	0.0029135868
101	0xbd937ff8	-0.072021425
102	0xbdbec35d	-0.09314606
103	0x3bba39a1	0.0056831394
104	0xbda025d0	-0.07819712
105	0xbc443965	-0.011976575
106	0xbd24108c	-0.040054843
107	0x3d1f3492	0.038868494
108	0xbc0622e7	-0.008187032
109	0xbd9abcd7	-0.075555496
110	0x3c91a894	0.01778058
111	0x3dfeae96	0.124356434
112	0xbda69273	-0.08133402
113	0x3e38f03f	0.18060397
114	0x3e171a58	0.14756143
115	0xbd6e7906	-0.058220886
116	0xbd14f243	-0.03636385
117	0x3daf19b4	0.08549824
118	0x3d217579	0.03941867
119	0x3d64898f	0.05579525
120	0x3b756c8a	0.0037448728
121	0xbd711fd5	-0.058868248
122	0x3c75e0ec	0.015007239
123	0x3db6afb2	0.0892023
124	0x3d9bdb98	0.076102436
125	0x3d992fb7	0.07479804
126	0x3de0c72b	0.10975488
127	0x3d19a9ae	0.037515335
128	0xbdd86c59	-0.10567541
129	0x3d32f006	0.043685935
130	0x3dd6152d	0.10453258
131	0xbd28e8bb	-0.041237574
132	0xbe233a6e	-0.15940258
133	0x3da0c432	0.07849921
134	0x3dfc4548	0.12317902
135	0x3d8d0fdb	0.0688779
136	0x3ce794ce	0.028269198
137	0x3d4ccdd7	0.05000099
138	0x3d170605	0.036870975
139	0xbd00fa51	-0.03148872
140	0xbcb411eb	-0.0219812
141	0xbe4f68d8	-0.20254838
142	0xbd293378	-0.04130885
143	0x3d3c4a9f	0.0459696
144	0x3d2ca245	0.04214694
145	0x3ddd8a93	0.108174466
146	0xbd682173	-0.056672525
147	0xbd554366	-0.05206623
148	0xbd349249	-0.04408482
149	0xbd1da9f0	-0.038492143
150	0x3c17834f	0.009247615
151	0xbd55a820	-0.05216229
152	0xbdaa4966	-0.08314781
153	0xbd99bbe2	-0.07506539
154	0x3daecb63	0.08534887
155	0x3d9d4cb2	0.07680644
156	0x3c8e488c	0.017368577
157	0x3cae9ab9	0.021314012
158	0xbc813767	-0.015773488
159	0xbd2e04bc	-0.042484984
160	0xbc9b1693	-0.018931663
161	0x3d8471d3	0.06467023
162	0xbde1229e	-0.10992931
163	0x3b7a6a5a	0.0038210363
164	0xbd3a2b5c	-0.045451507
165	0x3ddade4f	0.10686933
166	0xbe8e8cc0	-0.2784176
167	0xbd8900e8	-0.06689626
168	0xbd099804	-0.03359224
169	0x3e540fea	0.20709196
170	0x3d6dd1e6	0.058061503
171	0x3c4ed95e	0.012625067
172	0x3ce32cff	0.027731417
173	0x3d95f748	0.07322556
174	0xbd785efc	-0.06063746
175	0xbd1a6f99	-0.037704084
176	0x3cfc5016	0.030799907
177	0xbd4e0260	-0.050295234
178	0xbdb89118	-0.090120494
179	0xbe1a6d0f	-0.15080665
180	0xbd065e2e	-0.03280466
181	0x3cdee1bb	0.027207246
182	0xbd56f6b7	-0.05248138
183	0x3c521a2e	0.012823625
184	0x3cd4fdc7	0.025999917
185	0x3d361e9f	0.044462796
186	0xbbdec9f1	-0.0067989756
187	0xbc4ed717	-0.012624524
188	0x3d3d4863	0.04621161
189	0xbe6a50ae	-0.2288234
190	0xbd643318	-0.05571279
191	0xbe668d4b	-0.22514836
192	0xba83f970	-0.0010068845
193	0xba05de09	-0.0005106633
194	0x3d6a9a55	0.05727609
195	0x3d413b81	0.047175888
196	0x3de1386c	0.1099709
197	0x3cd9d4b1	0.026590677
198	0xbbd1ad56	-0.006398837
199	0x3d1cc280	0.038271427
200	0x3e21ffc3	0.15820222
201	0x3d3f57a9	0.04671446
202	0x3e05b481	0.13057138
203	0xbd5afdd9	-0.053464744
204	0x3dac428f	0.084111325
205	0x3d742cb4	0.059612945
206	0x3d20c70f	0.039252337
207	0xbd279ff6	-0.040924035
208	0xbd5d35e7	-0.054006483
209	0xbdab87e9	-0.08375532
210	0xbc38a074	-0.011268724
211	0x3df1ef9d	0.11813281
212	0x3cee0a68	0.029057696
213	0x3c667139	0.01406508
214	0x3cd149c3	0.025547868
215	0x3eb15b0a	0.3463977
216	0x3cb34065	0.021881292
217	0x3cc17765	0.023616502
218	0x3dd0cf63	0.10195806
219	0x3ca4e27e	0.020127531
220	0x3e274e04	0.16338354
221	0xbdc6936e	-0.09696089
222	0x3cc01b5b	0.023450544
223	0x3d458b44	0.048228517
224	0xbda5ad3b	-0.08089682
225	0xbd62556a	-0.05525724
226	0x3cbfda4f	0.023419527
227	0x3d707cdf	0.058712836
228	0x3d95a047	0.07305961
229	0x3cb5d173	0.0221946
230	0x3dd5559e	0.10416721
231	0x3c931c7a	0.017957915
232	0xbd0ed9da	-0.03487573
233	0x3c40619c	0.011742022
234	0xbcf2293c	-0.029560678
235	0x3dbfc96f	0.09364592
236	0xbc516df9	-0.012782567
237	0x3c664e8f	0.014056816
238	0x3d89a613	0.06721129
239	0x3c977193	0.018486774
240	0x3cf49de2	0.02986044
241	0xbf2b4d04	-0.6691439
242	0x3ea6aea5	0.32555118
243	0x3e28ea26	0.1649557
244	0x3d17852d	0.03699224
245	0x3cbbd493	0.022928512
246	0xbd82274b	-0.06355151
247	0x3b9f379d	0.0048589245
248	0x3c742fe5	0.014903997
249	0xbd63dbd6	-0.055629574
250	0xbde7366d	-0.11289678
251	0xbe269a2c	-0.1626975
252	0xbd35b3b2	-0.044360824
253	0xbc9c9a3a	-0.01911651
254	0x3d3a781c	0.0455247
255	0xbca1188c	-0.019665025

fc3.bias f4 [2]
0	0xbd2244b9	-0.03961632
1	0xbd26521a	-0.040605642
